rlearn/sports/output/sarsa_attacker/test/checkpoints/epoch=0-step=1-v1.ckpt (torch, 396025 bytes, 24 tensors)

encoder._module.weight_ih_l0 f4 [192, 64]
00000000: fe8a dfbc 86d0 cd3c 37dc 78bd bc23 963d
00000010: 6078 e13d a29a bbbd 384f de3d fed4 be3c
00000020: 28ee bc3d 9edc 893c 8378 763d aec2 8fbc
00000030: 5a24 c53d 8689 963c cb9c 6ebd 2f19 023d
00000040: d37c 6bbd 5d89 6ebc 238b 4fbd 429e a93d
00000050: bedf c9bd b3a0 6bbd 932a 10bd 92b8 99bd
00000060: 8da8 3f3c 1ea4 fcbd bcfd e63d 5442 d9bd
00000070: 2a6f c53d 1698 a93c d3d6 25bd 8cfd 9d3d
00000080: a6c5 9e3c 44a2 ce3d 9d3f 5e3c bf0f 21bd
00000090: 0f28 093d 2f6f 0abd cb11 573d 925b e43d
000000a0: 4ac7 933d 3b6c 5fbd 3293 933d be66 b63c
000000b0: 0ecd 813d 1ad4 9bbd 3836 fdbd 3368 45bd
000000c0: 3027 c4bd 6ada d13d ff0f 133d f3aa 533d
000000d0: 2384 213d 72f4 07bb 9824 c83d ccaf b5bd
000000e0: 799f fe3b 8886 aebd 7777 1d3d 07ea 2fbd
000000f0: bf79 1c3d c685 d4bc 9a1e d43d e486 97bd
00000100: 1e79 98bd 7a7b 98bd 760d e63d 0b37 2a3d
00000110: a421 f63d e210 d3bd 2cb7 fdbd 9214 c8bd
00000120: ee00 acbd 93f8 4e3d dfec 363d 0a83 d43d
00000130: 0800 84bd 3e50 aebd 8c9f 873d 0b8b 4ebd
00000140: f02a 9b3d 3e2d f2bc 2e3d 923d f4b2 c6bd
00000150: 4efc 80bd ebaf 1b3d 86a9 d73c 1b21 02bd
00000160: 9663 983d 8ed3 ad3d 8a70 b9bd 2a77 88bd
00000170: 6634 ea3d 1b5b 2cbd 531a 35bd dc7f f7bd
00000180: 1866 92bd d6fa fe3c 8657 86bc 3e9f b9bd
00000190: b29a 393b 02aa aebd 1afc d8bd cec3 8cbd
000001a0: 7ad9 dfbd d8cc a2bd f2b1 ff3d be96 c03c
000001b0: 435e 1d3d fa8f eebd e8ed a7bd 3b03 2abd
000001c0: 0e4e 9f3c 1a0e e1bd 8b32 5cbd ec0d 99bd
000001d0: 9231 8139 771b 3ebd 8d47 0cbc b844 adbd
000001e0: 2c83 afbd 6625 95bd c3d8 2ebd e4d9 c9bd
000001f0: 8a71 d63d 7668 cabc 8a0e dc3d d71e 1f3d
00000200: 4493 d8bd ccf4 b03d ef76 0cbd 77da 43bd
00000210: 144b d4bd e44c febd 3f14 123d 0ede debc
00000220: 83ec 463d 94e2 d1bd 6adb bd3d 86b6 bbbd
00000230: 96ff afbc 3e10 d53c a8f4 833d 7877 ce3d
00000240: 3400 e93d 86c8 cabd af71 003d 9fd0 5bbd
00000250: 9dca 5ebc a068 bfbd 9cf9 e83d c2af bbbd
00000260: 609d 883d 0b87 333d c7f7 253d 5e33 8abd
00000270: a07c e83d 8e34 e03c 86e8 823c 7e65 e1bd
00000280: ab85 563d 4ecd 98bc 6b26 6abd 80af db3d
00000290: fe7a e33c 1a6f 8dbd e65d 81bd b954 c0bb
000002a0: 58bc 8e3d 7b6c 02bd c6dc 91bd d3eb 2ebd
000002b0: e00b bfbd af2f 363d 14f3 c53d d0cd f0bd
000002c0: 6e01 ed3c f00a 843d b6dc b83c 1fed 35bd
000002d0: 9469 853d 9c53 863d 8b0a 3f3d 9e1e b3bc
000002e0: 2f2b 07bd 6d75 593c 1e13 b4bc bf2a 18bd
000002f0: a46e a33d 30cd db3d bd1b 49bc 8673 e4bc
00000300: 64f9 e13a d949 f1bb ae5c f53c ef11 0f3d
00000310: 184f e8bd ab89 3cbd 6061 d73d e70a 473d
00000320: d972 c8bb 9c23 9abd d66a 9cbd 8e1c e5bd
00000330: b37b 26bd b77e 2c3d c006 a33d bffa 6b3d
00000340: bc15 e2bd 78be 99bd fec8 a0bc cc6f f73d
00000350: 664f 933c f72e 04bd a369 533d 0f9a 42bd
00000360: 207e a5bd 78a5 ba3d d365 68bd 7675 ccbc
00000370: 1277 febd e620 ab3d ecbf c13d 1b30 3a3d
00000380: 244c b2bd ac73 fcbd 8ab6 cfbd cab1 be3d
00000390: 9367 753d 6a38 d73d eae7 853d 732c 013d
000003a0: 6456 93ba 1a7c c2bd 0021 dbbd 963e efbd
000003b0: 0b2f 513d 4ff7 7abd 7643 cdbc e41f 93bd
000003c0: 1ec7 b9bc 1afa b3bd d411 a7bd 276d 293d
000003d0: 47c1 17bd c8d5 9d3d 33d8 23bd a496 bbbd
000003e0: b6da b3bc f7c7 77bd 873b 1cbd 9081 f3bd
000003f0: 6006 8f3d 0a06 b2bd 2277 803d 8fed 673d
-0.027287956 0.025123846 -0.06075689 0.073310345 0.11009288 -0.09160353 0.108549535 0.023294922
0.09225112 0.016828831 0.060173523 -0.017548885 0.09626074 0.018376123 -0.058255 0.0317623
-0.05749209 -0.014559117 -0.0506698 0.082821384 -0.098571286 -0.0575263 -0.035196852 -0.07505907
0.0116979005 -0.1233599 0.11278865 -0.10608354 0.096403435 0.020702403 -0.040488075 0.07714376
0.019381355 0.100895435 0.013564971 -0.039321657 0.03348547 -0.03379744 0.052507203 0.11150278
0.07215746 -0.054546576 0.0720581 0.022265788 0.06337939 -0.076088145 -0.12363857 -0.048195075
-0.09577787 0.10246737 0.035903927 0.0516767 0.039432656 -0.0020745066 0.09772605 -0.08871421
0.0077704755 -0.085217535 0.03844401 -0.042947795 0.038202044 -0.025942694 0.10357399 -0.07398775
-0.07444976 -0.07445426 0.11233036 0.0415564 0.12018135 -0.103059545 -0.12388453 -0.097695485
-0.08398615 0.050530028 0.04465949 0.10376556 -0.064453185 -0.08511399 0.06622228 -0.05042557
0.07576549 -0.029562589 0.07140575 -0.09702101 -0.06298123 0.038009565 0.026325952 -0.031769853
0.074408695 0.084876165 -0.09054668 -0.06663354 0.114357755 -0.042079072 -0.044214558 -0.12084934
-0.07148379 0.031125467 -0.016399156 -0.09063576 0.0028320965 -0.0852852 -0.105949596 -0.06873284
-0.10930152 -0.07949227 0.12485112 0.02350938 0.038419973 -0.11648555 -0.08199674 -0.041506987
0.019446399 -0.10989018 -0.05375914 -0.074733585 0.0002464173 -0.04641291 -0.008561981 -0.08460373
-0.08569941 -0.07282524 -0.04268719 -0.098560125 0.104708746 -0.024708014 0.107449606 0.03884777
-0.10574964 0.08640441 -0.03429311 -0.047815766 -0.103658825 -0.124170095 0.03566384 -0.027205493
0.0485654 -0.102482945 0.092703655 -0.09165673 -0.021484178 0.026008721 0.06443149 0.100813806
0.11376992 -0.09901528 0.031358417 -0.053665753 -0.013598111 -0.093461275 0.11375734 -0.091643825
0.06670642 0.04382996 0.040519502 -0.06748079 0.11351895 0.02736881 0.015980016 -0.11005686
0.05237357 -0.018652584 -0.057165544 0.10726833 0.027768608 -0.069059566 -0.06316738 -0.0058694747
0.069695175 -0.031841736 -0.07122187 -0.04270537 -0.09328437 0.04447907 0.09665504 -0.117580056
0.028931346 0.06447399 0.02256618 -0.04441559 0.06514278 0.06558916 0.046640914 -0.021865185
-0.033000167 0.013272625 -0.021981772 -0.03715014 0.079800874 0.10732496 -0.01227468 -0.027887117
0.0017240462 -0.0073635397 0.02995142 0.034929212 -0.11343211 -0.046029728 0.1051662 0.04859438
-0.0061172065 -0.07526323 -0.07637565 -0.11187087 -0.040645313 0.042113032 0.07960272 0.057612177
-0.11039302 -0.07507032 -0.01962709 0.120818704 0.017982196 -0.03227135 0.051614415 -0.047510203
-0.08080697 0.09113592 -0.056737732 -0.024958353 -0.124250546 0.08355884 0.09460434 0.045456033
-0.08705929 -0.1232675 -0.101422384 0.09311254 0.05991323 0.10508807 0.06538375 0.03153653
-0.0011240956 -0.09496327 -0.106996536 -0.11681859 0.051070254 -0.061271008 -0.025056582 -0.07183817
-0.022677954 -0.087879375 -0.08157697 0.04136386 -0.037049558 0.07706791 -0.040001106 -0.09159592
-0.021954875 -0.060493436 -0.038142707 -0.118899465 0.06983638 -0.08692558 0.06272723 0.056623038

encoder._module.weight_hh_l0 f4 [192, 64]
00000000: 32c7 b8bd 7a2c efbd 7efc 883d 037c 2fbd
00000010: d0cb f3bd 0709 13bd d02f 8dbd a82e 8a3d
00000020: 5ef8 9fbc bef4 9abd fbdf 50bd 3eb4 e1bc
00000030: fcb8 c33d fd96 383c fa62 cabd 4b28 04bd
00000040: cab6 eb3d 008b dabd 8f92 3fbd c4c9 de3d
00000050: d716 4ebd a6ca c23d 4072 a7bd b093 c13d
00000060: 38f5 a83d d69c bebc ea42 edbd d7c4 2cbd
00000070: 26a4 ff3c 5b11 2bbd be1b ccbd d60f e2bd
00000080: eb63 733d c054 b83d f784 41bd b941 993b
00000090: 8e81 9cbd 4a9b 933d fa04 a8bd 06fc 90bd
000000a0: 070f 50bd 8e3a bbbc bc73 7b3c 5020 f1bd
000000b0: 97d5 3abd d7cc 5dbd 8630 cfbc 19e7 e5bb
000000c0: 39a5 bc3b 2283 823d b089 91bd 722e 2c3b
000000d0: 926f e83d ce88 823c 40f7 bdbd 5004 af3d
000000e0: d2f9 e2bd 3baf 4f3d 3ebd d33d 6d09 7f3c
000000f0: 181c 893d aaee ca3d b360 693d fb66 19bd
00000100: aed5 dd3c 16da ce3d 5646 ef3c 7840 cbbd
00000110: c08e de3d cce2 f73d 345a 943d 52f7 8a3d
00000120: a0a0 8f3d da39 9bbd bb44 19bd 5be1 5c3d
00000130: d3fd 013d 9b29 593d 727e 14bb 5680 f6bd
00000140: db46 723d 0ad1 a0bd b058 d3bd 42f6 fc3d
00000150: 3b4b 613d 8f0b 7e3d e3e9 5fbd 8344 3c3d
00000160: dd6a 2c3c 826a ae3d 0dee 6d3c 5e9a e43d
00000170: 4605 efbc e208 ec3d f053 fd3d 7d99 703c
00000180: 007e bbbd 7013 56b8 7e91 cb3d 66b3 aebd
00000190: 2792 36bd 6bbb 383d a63f cf3c 2a72 f03d
000001a0: 0ed8 a73c c95f 60ba 26c3 853c 16cf d1bc
000001b0: 9e78 ebbd 0f2c 33bd 68dc e7bd 3c1b bb3d
000001c0: 598d f43b 3dd5 6c3c 4d7f 0cbc c225 83bd
000001d0: 5066 b4bd b6ea 9bbc 9780 1a3d 42e3 8bbd
000001e0: 5e2d 9ebd 881e a63d e35b 31bd 2e05 903d
000001f0: 36df f43d 4a69 f03d 66b9 c5bd 0d45 163c
00000200: c286 c8bd d9c7 a53b ae95 8d3c 5732 5dbd
00000210: 438e 173d 1b19 20bd 4807 903d 6416 8f3a
00000220: 9c7d b13d 54d3 ac3d ced7 e33c 5659 be3c
00000230: b352 67bd 06d9 a8bd 6064 ac3d 10bc a83d
00000240: bec3 9f3c c695 d63d 0477 853d dc05 a73d
00000250: 4697 c3bc 7e8e 913c 98f6 e5bd 46b4 e9bd
00000260: 9308 733d 481c 9abd 0ec5 c23d c85c cebd
00000270: deb7 d3bd 98ef d1bd 2e17 a43d 2c7b a9bd
00000280: b255 dbbd bbde 573d 36ba cdbc c29f f3bd
00000290: 365b b53d 6a56 b93d 7224 cd3d c47e a03d
000002a0: 8843 c6bd 93fb 60bd bbcc 48bd 0cc2 f8bd
000002b0: 18b2 b23d 7bc9 4ebd 9f52 2f3d b8f8 81bd
000002c0: 6633 e53d 862d b43d ba7a b03d 6f30 7a3d
000002d0: 7215 d63d 13fd 263d 9e2a ae3c 1613 e6bc
000002e0: 18d2 cf3d e8cf f6bd a0a1 b63d 3d23 40bc
000002f0: ddf0 05bc 0818 a8bd 7371 5fbd 5657 c03c
00000300: 8339 50bd 6fdd 353d 1670 8f3c 84b7 d9bd
00000310: f2b5 8b3d 5f05 61bd e393 38bd 8706 3cbd
00000320: e3e3 493d 3c3a fcbd c249 b8bd 87a3 4d3d
00000330: 5bb9 1abd e67b c1bc bece e5bd 1d0e 4e3c
00000340: 6f8d 703d 8f66 38bd fde3 1a3c f2c5 613b
00000350: d603 d8bc c847 ce3d c370 033d 96d0 c13c
00000360: f242 78bb b221 25bb 7843 893d 794b e83b
00000370: 3ee6 e63c ca8d cf3d 3ccd b43d 3f7d 3bbd
00000380: b86b d1bd 5b72 063d 54a4 aebd b665 febd
00000390: a696 af3d f0f8 d3bd ce79 fc3d 6aa3 ebbd
000003a0: 903d d0bd 5cfa 923d 1d63 1c3c e3bf 5ebd
000003b0: 4fee 413d 3620 a6bd 92e5 8cbd fe55 f6bd
000003c0: 2aed 82bd 8aad dbbd 6828 db3d 3f2b 5ebd
000003d0: 86eb ac3c 7bb7 65bd 6ec7 e9bc 88ce ba3d
000003e0: 3695 cf3c 2bcb 763d 47e2 263d b870 d0bd
000003f0: 9689 993d 4c36 cf3d a79a 183d 26b9 cb3d
-0.090223685 -0.11678405 0.06688784 -0.042842876 -0.119041085 -0.03589728 -0.06893885 0.0674718
-0.01952761 -0.07566212 -0.050994854 -0.027551766 0.09556767 0.011266467 -0.098821595 -0.03226499
0.115094736 -0.106710434 -0.04677063 0.108783275 -0.05031475 0.09511308 -0.08176088 0.09451997
0.08249897 -0.023268145 -0.115850285 -0.04217991 0.031206202 -0.0417646 -0.09966229 -0.11038177
0.05942146 0.0900054 -0.047245946 0.004677024 -0.07641898 0.072073534 -0.08204074 -0.0707932
-0.05079558 -0.02285507 0.015347417 -0.11773741 -0.04561385 -0.05415043 -0.025291692 -0.0070160744
0.0057570008 0.06372668 -0.0710634 0.00262728 0.11349405 0.015934374 -0.09275675 0.085457444
-0.11082806 0.050704222 0.103388295 0.015566212 0.066948116 0.09908803 0.056976985 -0.037451725
0.02707943 0.1010019 0.029208343 -0.09924406 0.10867071 0.12103805 0.072437674 0.06785454
0.07013059 -0.07579394 -0.037419062 0.053925853 0.031736206 0.053018194 -0.0022658375 -0.12036197
0.059149604 -0.07852371 -0.1031965 0.123516575 0.055003386 0.062022742 -0.05466641 0.045963775
0.010523525 0.085164085 0.014522088 0.11162256 -0.02917732 0.11525132 0.123695254 0.014685032
-0.09154892 -5.103968e-05 0.0993986 -0.08530311 -0.044572975 0.04510061 0.025298905 0.11740525
0.020488765 -0.0008559195 0.016328406 -0.025611442 -0.11497615 -0.04374319 -0.11321336 0.09136054
0.007463139 0.014455137 -0.008575273 -0.06403686 -0.08808577 -0.019032817 0.03772029 -0.06830455
-0.07723497 0.08111292 -0.04330052 0.07032238 0.119566366 0.11738832 -0.096545026 0.009171736
-0.09791328 0.005059224 0.017283287 -0.054003086 0.037000906 -0.039086442 0.07032639 0.0010916707
0.08666536 0.08438745 0.027812865 0.023235958 -0.056475352 -0.08244519 0.084175825 0.08238995
0.019502517 0.10477786 0.06516841 0.081554145 -0.023875844 0.01776814 -0.11228675 -0.114113376
0.05933435 -0.075249255 0.095102414 -0.1007629 -0.10337804 -0.10250777 0.08012234 -0.08275446
-0.107097045 0.052702647 -0.025113206 -0.11895706 0.08855288 0.09049685 0.10016717 0.078366786
-0.09680849 -0.05492742 -0.04902337 -0.121463865 0.08725375 -0.050485115 0.042803403 -0.063462675
0.11191444 0.087977454 0.08617158 0.061081346 0.10453309 0.040768694 0.021260556 -0.028085273
0.10147494 -0.12051374 0.08917546 -0.011727151 -0.008175102 -0.082077086 -0.054551553 0.023479145
-0.050836097 0.04440063 0.017509501 -0.10630706 0.06821813 -0.054936763 -0.04506291 -0.045904662
0.049289595 -0.12315795 -0.08998443 0.05020478 -0.037774425 -0.02361865 -0.112210736 0.012576607
0.05872863 -0.045019682 0.009453771 0.003445026 -0.026369017 0.10072285 0.03208996 0.023659032
-0.00378817 -0.0025197086 0.06702322 0.007089075 0.02818596 0.10134466 0.08828208 -0.04577374
-0.10225624 0.0328239 -0.08527437 -0.124217436 0.08573656 -0.103502154 0.1232792 -0.11505778
-0.10167992 0.071766585 0.009545115 -0.054382216 0.04734641 -0.081116125 -0.068797246 -0.120281205
-0.06392892 -0.10726459 0.10701066 -0.05424046 0.0211084 -0.056083184 -0.028537478 0.09121424
0.025339704 0.06025235 0.04074314 -0.101777494 0.074969456 0.10117778 0.037256863 0.09947424

encoder._module.bias_ih_l0 f4 [192]
00000000: fefe 93bc 19a0 d2bb a206 e8bd 8cc7 dc3d
00000010: ac8e f1bd a308 143d 83cb 6bbd cb5e 5c3d
00000020: 2f20 123d 4b59 0ebd e291 b0bd 5f7f 4c3d
00000030: 671b 5a3d e021 fcbd c695 e2bc 5f59 3cbd
00000040: f2cd 09bb fba1 3abd e62c f2bd 371e 293d
00000050: 8329 623d 48be 943d f271 d33d cece 963d
00000060: 783f 9dbd f06e f83d a058 a8bd 5e03 e43d
00000070: 9864 debd 3e18 8abd d24c b7bd 79ac ed3b
00000080: db45 42bd 12cd e83d 0e2d 99bc abb9 7abd
00000090: 0e7d bbbd 2e76 e6bc 2c01 88bd 86c2 debc
000000a0: 0b15 45bd bef9 ea3d 662c fe3d 88e7 8abd
000000b0: beda d23d cda9 66bc b3fe 15bd 9aaa f8bd
000000c0: cc10 afbd eb30 69bd f81a a4bd 8c08 a8bd
000000d0: 3e3c 8bbc 683f 82bd 1c5e a7bd 26dc bc3d
000000e0: 8c43 bfbd 68dc a0bd efdf 28bd 368c b83d
000000f0: 72f8 7e3b 0b0b 37bd d833 b1bd ee1a b13c
00000100: 9647 d83d 6ae9 ccbd 0bea 08bd e83c 92bd
00000110: adce 4dbc 59f0 fbbb 1b66 76bd 1246 913d
00000120: 9ba0 023d 70db e7bd 9270 a73d cfe1 11bd
00000130: 32de 35bb 36e6 ae3c fc4a a63d 5cca 6f3c
00000140: 40f6 d73d 39c5 b53b 5ba6 35bd f0ec d53d
00000150: 3646 c93d a6b8 c7bc ea8a c23d a7ac 023d
00000160: 3fcd 513d 5fa5 7cbd dec8 f1bd 2797 463d
00000170: 18cb 90bd 03b3 1f3d c8ed bebd a313 17bd
00000180: 4898 ddbd 7043 97bd bdda 76bc fc04 aebd
00000190: 8420 c83d 06af ca3c 1cc2 ab3d fd19 2a3c
000001a0: df83 1bbd 14bc f8bd 9d52 47bc 2f03 08bd
000001b0: 3dc0 523c b21a a9bd 829f c23d 39c5 abbb
000001c0: d258 d43d 0fa6 783d deb1 8bbd 5d46 4cbc
000001d0: 1dd2 62bc fbde 78bd 47a6 353d ad6b 0a3c
000001e0: 80a6 f23d 9eb2 873c 549c b83d b80c 9f3d
000001f0: fb09 3e3d 2463 e7bd e673 853d 329a 4abb
00000200: edf7 583a 5787 afbd 2f86 acbd 4f3c 833d
00000210: 6e56 1f3d bc55 583d 55b1 e5bd 0245 51bd
00000220: 9487 9cbd 970f a2bd 42c5 753d 6a14 993b
00000230: b423 13bd e5c4 673b 8aad 12bd 39d7 553b
00000240: 9e37 d9bd e6ea 9c3c 8f54 b53d a545 d83d
00000250: 22d9 a53d 3a1b 2ebd 7743 d7bd 56fd d43d
00000260: 8206 043d 53e2 823d 6644 fd3d c7e2 2e3d
00000270: bcf7 d7bd 0f2e ae3d aa97 6dbd be83 21bd
00000280: bb45 ac3d 662c 08bc 5fd4 003c 5d2b 983c
00000290: 77cc 613d 36e0 dcbc 7526 d13d 6ac8 34bd
000002a0: d753 b9bc b7e3 1fbc d71b 86bd c45f 26bd
000002b0: 3384 0abd 5be9 56bd d94e eb3d 92e0 aebb
000002c0: 53f2 f93d bbd1 f43d c468 f93c 6faf 893d
000002d0: 4c63 c5bd f2d4 bc39 655b f83d 9b6a 88bc
000002e0: 9dcc 9cbd b43b 5cba 1423 30bd 11dc a2bd
000002f0: 4371 863d 0394 123d 90f1 103d df36 ecbd
-0.018065926 -0.0064277765 -0.1132939 0.10780248 -0.117947906 0.03614105 -0.05756713 0.05380134
0.035675224 -0.034753125 -0.08621575 0.049926158 0.05324879 -0.12311149 -0.027659308 -0.04598367
-0.0021027294 -0.045564633 -0.1182497 0.04128858 0.05521537 0.07262856 0.10324468 0.073636636
-0.07678121 0.12130535 -0.08220029 0.11133455 -0.108590305 -0.06742905 -0.08950199 0.0072532264
-0.0474299 0.11367239 -0.018698242 -0.061212223 -0.09154712 -0.028132524 -0.066408485 -0.027192365
-0.04811577 0.11473416 0.12410812 -0.06782442 0.10295628 -0.01407857 -0.036619853 -0.12141915
-0.085481256 -0.056931417 -0.080129564 -0.08204755 -0.0169965 -0.0635975 -0.08172247 0.092216775
-0.093390554 -0.07854539 -0.041229185 0.09011118 0.003890541 -0.044688266 -0.086524665 0.021619286
0.10560529 -0.10005458 -0.033426326 -0.07140523 -0.012561482 -0.007688564 -0.06015597 0.07093443
0.031891447 -0.11321151 0.08175768 -0.03561574 -0.0027750847 0.021350008 0.08119771 0.014635649
0.10545015 0.0055471924 -0.044348102 0.10445583 0.09827845 -0.02438004 0.09499152 0.031902935
0.05122113 -0.061681148 -0.118058905 0.048483994 -0.07069987 0.03898908 -0.09322697 -0.03688396
-0.10820061 -0.073859096 -0.0150668 -0.084970444 0.09771827 0.02474166 0.08386633 0.010382173
-0.03796756 -0.12145248 -0.012165693 -0.03320616 0.012863216 -0.08257045 0.0950308 -0.0052420166
0.10368504 0.06070524 -0.06821035 -0.012467948 -0.01384404 -0.060759526 0.044348028 0.0084485235
0.118481636 0.016564663 0.09014192 0.07766098 0.046396237 -0.112982064 0.065162465 -0.0030914661
0.000827669 -0.08570736 -0.08424031 0.06407987 0.038900785 0.052816138 -0.11215464 -0.0510912
-0.07643047 -0.0791313 0.060002573 0.004671623 -0.03592272 0.003536516 -0.03581003 0.0032629503
-0.10606311 0.019154977 0.08854019 0.10560159 0.080980554 -0.042506434 -0.10510915 0.103998825
0.03223277 0.06390824 0.123665616 0.04269674 -0.105452985 0.08504879 -0.058005966 -0.03943228
0.084117375 -0.008311367 0.007863133 0.018575365 0.055126633 -0.02696238 0.10212413 -0.044136442
-0.022622986 -0.009758881 -0.06548279 -0.040618673 -0.03381748 -0.05246864 0.11489648 -0.0053368295
0.12204423 0.119540654 0.030445464 0.067229144 -0.0963808 0.0003601681 0.12126807 -0.016652396
-0.076562144 -0.00084012304 -0.043002203 -0.079521306 0.06564572 0.035785686 0.035386622 -0.11533903

encoder._module.bias_hh_l0 f4 [192]
00000000: 9c14 1bbc 142a e13d 4d7e 2a3c 5afe f13d
00000010: b699 f4bc 8cf7 713c 227a 883d 7182 543b
00000020: 4665 903d f89f e53d e876 a53d e763 553d
00000030: c49a b03d 2624 cf3d fe4f e8bd e446 b83d
00000040: 2061 ab3d 12f5 803d 1c72 9ebd aa6b c43d
00000050: df7a 063d c3b4 463d f44e febd 1cdf e63d
00000060: 9858 cfbd 5bc3 593d d6a9 f93d f2cb 8e3d
00000070: 6ee4 d2bc cee7 abbc 501f a2bd a8d2 88bd
00000080: 27ce 66bd 087e 923d 7691 9f3d c62e febc
00000090: b367 2a3d be1c ae3c 3b1b 11bd b882 ad3d
000000a0: b035 b2bd 96bf cc3c 6ea0 f03c f986 98bb
000000b0: 9ed1 c03c e0db a43d 3700 3d3d b6e8 85bc
000000c0: 53f7 243d 6f4c 5e3d 6fe8 44bd fecd b5bd
000000d0: da2f 8c3d cd14 3abc 104c af3d a6c8 ba3c
000000e0: ad21 573c e726 563d f879 c63d 6bf7 26bd
000000f0: cf2b 673d 46ed bdbc e3a2 613d d40e ebbd
00000100: f4ab db3d b610 8e3d 8c98 bb3d 0c51 cf3d
00000110: 4706 22bd dd66 52bc bc7a 93bd ddbc 123c
00000120: 7268 6c3b 966d b2bc b733 59bd 12db b93d
00000130: 088e aa3d 4a59 dfbd 544c e6bd 8273 87bd
00000140: 5df2 60bc ed9c 66bc 5407 ed3d f227 013b
00000150: 0d1d 73bc 8e30 b13d ff72 14bd c289 b83d
00000160: 96eb b9bc 0fb0 35bd adc3 6a3c 6c0f bcbd
00000170: ba24 e73d f702 0c3d a649 e33d 44e9 fd3d
00000180: 7df7 163c b279 7dbb aded 43bc 387c 92bd
00000190: 5f05 743d 3e9c b2bd 6219 d33d c352 5a3d
000001a0: 8d4d 14bc 0eb1 983d 768a a23c 5cb1 cb3d
000001b0: 129b 94bd fe93 c1bd 43b1 57bd 9abe a23d
000001c0: c0b9 943d f7ca 22bd cee7 ecbc d0c6 8a3d
000001d0: 76eb f9bd c7cb 613d 2d9a 6d3c 930a 033d
000001e0: 944d f9bd f9e6 c83b a686 873c 5c95 c53d
000001f0: 8048 d23d 2dc1 35bc f6b0 e53d 6e2f f1bd
00000200: 1101 c3bb 4f7b 663b f8e4 c1bd df6e 923d
00000210: bd4a e43d 7b7d 57bd 1b42 c4bd b527 443c
00000220: 5170 de3d 4042 4ebd dc96 3bbd b4a1 653d
00000230: 8d6e e13d 5350 f33d af7c e93d 0e4c b73d
00000240: 7515 883d baf9 f9bd 97d4 e83d b7fd 26bd
00000250: b8cb d2bd df7e 94bd 8bae bcbd 9fa2 b8bd
00000260: 3601 01bc 9fe5 693d e918 c5bd 5040 e4bd
00000270: 7ed8 843d 7d7c e73c 3aca 2e3d c292 72bd
00000280: fa64 633d 2807 6ebd 38b1 fc3d 3f73 0c3d
00000290: 4ecc b7bd 53cc 593d 3ad5 f63d e7ea 95bd
000002a0: 0ec3 dd3c b8c9 3ebd 1fde babd 1778 483d
000002b0: cc81 ac3d 503c e53d b18d 723c 00f9 cd3a
000002c0: 7d93 02bc 7d25 933d 72f4 27bc 2746 0f3d
000002d0: 1265 8bbc 4165 57bd afc8 a83d fae1 4f3d
000002e0: 23d2 1c3d 2c80 2ebc be7a dc3c 6252 0b3d
000002f0: c25e 783b 8f43 33bd a41d d3bc 7208 9bbd
-0.009465363 0.10994354 0.010406089 0.11816092 -0.029858451 0.014768492 0.0666392 0.0032426382
0.070505664 0.11212152 0.0807932 0.052097227 0.08623269 0.10114317 -0.11343382 0.08997896
0.083681345 0.062967435 -0.077366084 0.09590848 0.032832023 0.04851223 -0.12417403 0.112730235
-0.1012432 0.05316482 0.12190597 0.06972493 -0.02574369 -0.020984557 -0.07916129 -0.066808045
-0.056348946 0.07152945 0.07791416 -0.031028163 0.0416028 0.02125394 -0.03542636 0.08472198
-0.08701646 0.024993699 0.029373374 -0.004654762 0.023537453 0.0804975 0.046142783 -0.016346317
0.04027493 0.05427211 -0.04807323 -0.088771805 0.068450645 -0.011357498 0.0855943 0.022800755
0.0131305875 0.052283194 0.096912324 -0.0407633 0.056438264 -0.02318443 0.05508698 -0.114774376
0.10726157 0.06936781 0.091599554 0.1012288 -0.039556768 -0.012841907 -0.07201144 0.008956161
0.0036072996 -0.02178077 -0.053027835 0.090749875 0.083278716 -0.109057024 -0.11245027 -0.06613828
-0.013729659 -0.0140755 0.11573663 0.0019707647 -0.014838469 0.08651839 -0.03624248 0.0901065
-0.022695344 -0.044357356 0.014328879 -0.09182629 0.11286302 0.034182515 0.11098032 0.123980075
0.009214279 -0.0038677272 -0.011958522 -0.07152599 0.059575435 -0.08721207 0.10307576 0.053301584
-0.009051693 0.074556455 0.019841414 0.09945938 -0.0725614 -0.094520554 -0.052659284 0.079465106
0.072619915 -0.039744344 -0.028919127 0.06776202 -0.12203114 0.055125978 0.01450209 0.031992506
-0.12173 0.0061310497 0.016543698 0.09647629 0.102677345 -0.01109342 0.11215393 -0.117766246
-0.005951055 0.0035168712 -0.094675004 0.07150053 0.11147068 -0.052609902 -0.09582921 0.0119723575
0.108612664 -0.05035615 -0.045798168 0.056062415 0.11007414 0.11880555 0.11400735 0.08950053
0.066447176 -0.12205835 0.11368673 -0.040769305 -0.102927625 -0.07250761 -0.09212979 -0.090153925
-0.007873824 0.05710375 -0.09623892 -0.11145079 0.06486605 0.028257603 0.042673327 -0.05922199
0.05551622 -0.058112293 0.12338489 0.034289595 -0.08974515 0.053173374 0.120523885 -0.07320195
0.027070548 -0.046579093 -0.091243975 0.04894265 0.08423194 0.11193144 0.01480429 0.0015714467
-0.007969734 0.07184885 -0.010251151 0.034979012 -0.017015968 -0.052586798 0.08241402 0.050752617
0.03828634 -0.010650676 0.026913997 0.034014113 0.0037898277 -0.0437656 -0.02577097 -0.0756997

fc1.weight f4 [64, 92]
00000000: 1beb 4fbd 504d cbbd e7b4 8a3c 18d6 7abd
00000010: 829a 99bd 3ac3 32bb e8b0 94bd cb46 d1bd
00000020: 320c 3b3d 3f9e 493d 522f 8abc 8c4d c3bd
00000030: cb4a b53d eee9 b93d 0a0c ce3d f797 7d3d
00000040: e27e b53d 4b10 93bd 0975 cfbd f701 a0bd
00000050: 5aba d23d 0df1 bdbd 82b8 e5bc 422a d33d
00000060: 9c45 d03d 151b 053d a696 d33d f950 833c
00000070: fa97 8d3d 929f 8ebc 09eb 6b3d 7d47 4cbd
00000080: 307c c73d 88bb cbbd 2dcc bbbd c315 813d
00000090: 30d2 7c3b 9ed9 c93c a5b0 62bd 9dc1 fdbc
000000a0: f3a6 893d 2341 ab3d 899e 043d d1cf 8f3c
000000b0: 144d 82bd 8fb6 9f3d 4d12 4e3b b0d0 463c
000000c0: 1425 05bd 371c 9b3d 8c95 a03d 292e 9dbd
000000d0: f786 6e3c f332 2a3a cc6f 8bbd 73bd 68bd
000000e0: ea47 47bd 8ea3 613d 52fc 11bd bc38 65bd
000000f0: 8624 e0bc 0135 c8bd 2b2b 87bd e2ef 47bd
00000100: dbbb c73d 4b7d 98bd 85a3 5a3d d7f1 54bc
00000110: 4883 8c3d 7997 3cbd ae79 b43a dc24 0abd
00000120: 1198 a13d efa7 9fbd 7b84 f23c 14e6 d13d
00000130: f726 c53d 363a 95bb acde b33c fccb b13d
00000140: 5ddb b73d f466 5fbc 8c6b 70bc 07a4 6d3d
00000150: b3c8 99bd 3346 e0bc 95b6 dcbb 7e59 acbd
00000160: 0d4e 5dbd 1c90 cbbd 0a77 23bd 7911 d1bd
00000170: 178a 3c3d 1c98 fabc 9fdc bdbc d90c 2c3d
00000180: bfb2 a0bd 2c7c babc 78c4 5fbd 88ca 46bd
00000190: 3c1a 523d 8979 253d 0ba2 64bd 209f 06bd
000001a0: 6e35 51bd 2a74 65bc d892 a83b 47ea 723a
000001b0: 14b4 95bc 63a8 c3ba 5268 bc3c dec0 31bc
000001c0: abee 08bd 2a37 0f3d 7c60 943d b6c0 f13c
000001d0: 9e3d 98bd 377a ecbc 30d5 acbd b82e a43d
000001e0: 312a 9bbd 10cc 65bd de66 4b3d 0a28 933d
000001f0: ea7b 403d d60d 3ebd e8a9 8b3d 8527 c93c
00000200: fb36 cabd e064 61bc 620c c1bd dbe7 14bd
00000210: e594 993c 2545 cabd c46c 2bbc ee12 783d
00000220: 47a1 a73b 1e2c b83d 181f 86bc 70c3 d1ba
00000230: 4fdb afbd ad86 edbc b35f 8b3c 4093 a13d
00000240: d9e6 c33d cd79 67bc 6453 ba3d a44b 423c
00000250: a683 903d 96d3 7c3d ded6 8bbd f74f ce3d
00000260: 7cbe ca3c e2cc 6cbd dbb0 ccbd 6338 673b
00000270: 32a9 17bd 1157 b33d 07f5 0f3d 22f4 4ebd
00000280: 3b2d c33c 8b82 73bd 97f4 c43d a34d 6c3d
00000290: 29f4 523d 5aa8 393d 16e2 26bc e7ad debc
000002a0: 3ab9 1b3c 7702 d5bd 8cc1 5ebd be1b 443c
000002b0: 4225 9c3d 8901 ff38 6216 12bd c0e2 903d
000002c0: 3493 e33c 78b4 82bd c7c2 3b3d a3c6 d73c
000002d0: 932e afbd a7db 9e3c 6e5a 8dbd b358 c23d
000002e0: 2d2e 86bd 931d 92bc 328e 31bd dc10 1c3c
000002f0: eaf0 b93d 7597 4abd 946f 083d f169 b6bc
00000300: c55b 34bd b104 5c3b e82e a03d fab7 c0bd
00000310: ea8f 31bd 29db a13d afdd 4cbd 7483 c43c
00000320: 6032 203d faac 0b3c 6564 073c 28a6 8ebd
00000330: 0820 85bc 92ac a3bc 77c0 a9bb a1d1 3abc
00000340: 33f3 c6bc c588 7dbd 2cec 973d 200a f73c
00000350: c906 0e3d c181 533d 8f8a 063b c481 8a3d
00000360: 4464 043d 30a0 00bd a455 b13a ece3 b9bd
00000370: bad9 5cbd fb77 c63d e62a d33d 947b 98bd
00000380: 9588 39bd c689 6a3d a5a9 bebd becb 3bbc
00000390: b17b c3bd 6ca4 49bd 5388 5fbd 01b5 9ebb
000003a0: 6244 e2bc effb 6abd 32be 5e3d 6c9b 3cbd
000003b0: fece d1bd dc82 4f3d ec11 8c3d f7d1 b7bc
000003c0: 8e2e 413b fec7 583c 5c54 54bc cdb0 acbc
000003d0: a0a4 adbd 2686 3a3d 40ee a7b9 2714 623d
000003e0: ad2f de3b 4c1e 29bd 706b 52bd 0297 5c3c
000003f0: 8f11 5a3d ef2f d43d f324 bf3d 03ec ae3d
-0.050761323 -0.099268556 0.016931964 -0.061239332 -0.07500173 -0.0027277009 -0.07260305 -0.10218581
0.045665927 0.04922318 -0.016868267 -0.09536275 0.08852156 0.09077822 0.1006089 0.061912503
0.088620916 -0.07180842 -0.101297446 -0.07812875 0.1028945 -0.092744924 -0.028042082 0.103107944
0.10169527 0.03249653 0.10331468 0.016029822 0.06913753 -0.017410073 0.057597194 -0.049872864
0.09740484 -0.09947878 -0.09169803 0.06302979 0.003857743 0.0246399 -0.055344243 -0.030976111
0.06721296 0.08362033 0.032377753 0.01755515 -0.06362358 0.07798492 0.0031444014 0.012134716
-0.032506064 0.07573741 0.07841024 -0.0767482 0.014558545 0.00064925774 -0.06808433 -0.056821298
-0.048652567 0.05508762 -0.035641022 -0.05596231 -0.027361166 -0.09775735 -0.066000305 -0.048812754
0.097526275 -0.07445773 0.0533786 -0.012997112 0.068609774 -0.046042893 0.0013769174 -0.033726558
0.078903325 -0.07795703 0.029604187 0.10248962 0.096265726 -0.0045540584 0.021956764 0.08681485
0.08977387 -0.013635386 -0.014674079 0.058017757 -0.075089835 -0.027377224 -0.0067356327 -0.08415507
-0.054029513 -0.09939596 -0.039908446 -0.10208411 0.04603013 -0.03059011 -0.02317649 0.04200444
-0.07846593 -0.022764288 -0.054630727 -0.048532993 0.05129455 0.040399108 -0.0558186 -0.032866597
-0.051076345 -0.014004746 0.0051444583 0.00092664774 -0.018274345 -0.0014927502 0.022998963 -0.010849206
-0.033430737 0.034964718 0.072449654 0.029510837 -0.074336275 -0.02886687 -0.084391 0.080167234
-0.07576407 -0.056102812 0.04965865 0.07185371 0.046993174 -0.046399914 0.068195164 0.024554977
-0.09873768 -0.013756961 -0.0942619 -0.036353927 0.018747756 -0.098764695 -0.010462943 0.060564928
0.0051156613 0.0899279 -0.016372249 -0.001600368 -0.08586752 -0.028994882 0.017013406 0.07889414
0.09565515 -0.014128161 0.09097937 0.011858854 0.0705636 0.06172522 -0.06828092 0.10073846
0.024749033 -0.05781258 -0.0999467 0.0035281412 -0.03702659 0.08756841 0.035145786 -0.050525792
0.023825279 -0.059450667 0.09616964 0.057691228 0.05150238 0.04532657 -0.010185739 -0.027182532
0.009504611 -0.10400861 -0.0543838 0.011969505 0.07624294 0.000121596335 -0.035665877 0.07074499
0.027780153 -0.06382078 0.04584005 0.026339835 -0.08553805 0.019391848 -0.06902014 0.09489574
-0.06551776 -0.017836368 -0.0433485 0.009525504 0.09079154 -0.049460847 0.033309534 -0.022267314
-0.04403283 0.0033572132 0.07821447 -0.09410091 -0.043350138 0.079031296 -0.0500161 0.023988463
0.03911054 0.008525128 0.008263682 -0.069652855 -0.016250625 -0.019979749 -0.0051804143 -0.0114025185
-0.024285888 -0.06189801 0.07418093 0.030156195 0.03467444 0.051637415 0.0020529365 0.06763032
0.032322183 -0.031402767 0.0013529551 -0.09076676 -0.053918578 0.09690853 0.103109166 -0.07445446
-0.04529627 0.057260297 -0.09309701 -0.01146215 -0.09545077 -0.04922907 -0.05457337 -0.0048433547
-0.027620498 -0.05736917 0.054380603 -0.04604666 -0.10244559 0.050661907 0.06839356 -0.022438986
0.0029477212 0.013231276 -0.012959566 -0.021080399 -0.08478665 0.04553809 -0.00032030232 0.055195
0.0067805857 -0.04128866 -0.05137199 0.013463737 0.0532394 0.10360705 0.093332194 0.085411094

fc1.bias f4 [64]
00000000: f654 b63b 646c b43c a5e3 f93c 9e0b ce3d
00000010: 3035 25bd b886 26bb 5271 b5bd 45b3 af3d
00000020: bb96 1ebc 77b4 79ba 0205 023d 9bc9 f4bc
00000030: 21bb 2dbc c145 97bd a8d3 ab3b 00b4 b1bd
00000040: 3289 d4bd 727c 25bd a4af 1cbc 326f 0a3c
00000050: 8320 86bd 8194 c23d 101b c43d 4075 cfbd
00000060: 84f7 dfbc 2b2f b4bd 8ae9 9c3d 654e a2bc
00000070: a53a 553d d77a 9dbd 6e29 f7bc 48b9 983c
00000080: 5bb1 023d d07c af3b f70b 9e3d e6b7 23bd
00000090: e81a 9dbd c3e5 8c3d 8788 61bd 805a b3bc
000000a0: cb0a 5e3d ffed 953c 9690 3d3d 6d76 c8bd
000000b0: 1d47 91bd 27e3 9e3d 68ce a23d cbf8 683c
000000c0: 2e4b bf3d e63a a1bc c246 ae3d 219d 8fbd
000000d0: fd48 acbd 14dc 023d f26a 6cbd cd16 b03c
000000e0: 3d18 2f3d 09ed bf3d 3e30 9ebd ddaf 7cbd
000000f0: 93e0 803d cc78 283c f12b 8c3c 6a21 abbc
0.0055643274 0.02202434 0.030504057 0.100608096 -0.040333927 -0.0025409888 -0.08859505 0.08579115
-0.009679492 -0.00095254875 0.031743057 -0.02988129 -0.010603697 -0.073863514 0.0052437373 -0.086769104
-0.103777304 -0.040401883 -0.00956336 0.008449363 -0.0654917 0.09500981 0.09575474 -0.101297855
-0.027339704 -0.08798059 0.076617315 -0.019812772 0.05205788 -0.076894455 -0.030171122 0.018643036
0.03190742 0.005355455 0.07717126 -0.0399703 -0.076711476 0.06879761 -0.055061843 -0.02189374
0.05420951 0.018301962 0.046280466 -0.09788213 -0.07093642 0.077581696 0.07949525 0.014219473
0.09340511 -0.019681405 0.0850959 -0.07012392 -0.08412359 0.031948164 -0.05771918 0.021495247
0.042747725 0.09371383 -0.07724045 -0.061691154 0.06292834 0.0102827065 0.017110797 -0.020889957

fc2.weight f4 [16, 64]
00000000: e64f ee3d 718e 9cbc 1d1f 61bd ba51 db3d
00000010: 75f5 bdbc e242 853d 2a0c 67bd 1446 ab3b
00000020: 9e66 85bc d2e3 7e3d 6893 92bd 2384 d2bd
00000030: 37c5 ffbd 7b7f b1bd ae53 18bc 3a0a 773c
00000040: ff68 e83d 9fe4 7b3d 625b 7fbd 4e08 b9bc
00000050: 687e 183d b119 e23d a828 bdbd 5d32 03bc
00000060: 2ef6 f8bd ab96 8cbd 4b2b 2c3d b4d0 283b
00000070: 4a0f c8bd 3d07 cebd 4f52 963d 257c 983d
00000080: 2978 9bbd b4e4 b2bd d1d9 c7bd f879 b63d
00000090: b6e4 c6bc 1e13 be3d 4bde ce3d de07 9cbd
000000a0: 2001 c5bd 7cc7 babd e3b6 c33d 7ef7 bbbd
000000b0: 31c7 b5bd 620b b63d 234d abbd 320c a1bd
000000c0: a311 99bd a7ee a1bd 04f0 fe3d fed4 a93d
000000d0: 15ab d13d a229 ac3d d058 223d 5ee8 aabc
000000e0: 6594 0a3b 26c4 c03c 81f4 8f3d 7529 913d
000000f0: 1082 c03d 0b96 28bd 7851 ce3d 2125 34bd
00000100: 48fe 0c3d 5753 093d a312 a03d 3ffd 843c
00000110: daf8 c2ba b62c a8bc 7cc7 48bd 0de0 ad3d
00000120: 80e4 b23d d7d4 533d 0b83 4fbd bfd5 d53c
00000130: af21 1ebd 1805 533d 903d 8b3d ec70 ec3d
00000140: fb45 ba3d bcbd dbbd 172d 9abd 9ff0 3a3d
00000150: 34aa d33d b8cf c2bd 249b 88bd fb25 533d
00000160: dfa0 62bd 18e4 be3d 7326 5fbd 4e40 a83d
00000170: 4b71 353d 6771 01bd dc4e b3bd 619d a03d
00000180: 7100 e2bd 7e14 84bd 343f e1bd c0d3 ef3d
00000190: 6d00 423c fe85 a5bc 4804 193d 7e5c eb3d
000001a0: 02ab 823d 42f8 d13d e44e 99bd 2813 89bd
000001b0: c454 b73d df8a 7e3d 1b8c 1abc a9fd c63d
000001c0: 7f8c d4bd 741c 983d 49da b4bd 5d56 a5bd
000001d0: 864e a03c 26c1 be3d 4465 a73d 7c77 513c
000001e0: b3ab 733d 3789 7cbd f573 de3d 678c 9a3d
000001f0: 47c7 243d 6411 fb3d 3bac 05bd 0660 83bd
00000200: 0f99 a9bd f77b 513d f254 c6bd d536 483a
00000210: 58f3 e63d e754 7bbd 3957 dbbc f723 053d
00000220: 5e48 a5bd c82a acbc 1f80 5c3d b0de 893d
00000230: 6fb1 f3bd 9d6a fabd 7b98 663d 3c10 323d
00000240: dfac d6bc 084e b9bd 6a3a cb3d f202 da3d
00000250: 0724 62bd b945 a63d db97 bd3d 9ee4 b93c
00000260: 8d94 26bc 2ba0 6cbd 3e1b fb3d 712b a93d
00000270: da51 953d 9c3e e23d 575c b8bc edb3 343b
00000280: 1e7b d33d 81c0 cc3d 7b4b 233d 2c09 463c
00000290: cc19 6cbc 349c 463b 0c47 983d 6da0 b63d
000002a0: e6ac 99bc eef5 a9bd 4b7e 113c 9fab 80bc
000002b0: d8c1 ff3d 9480 dcbd 9851 523d a44d 933d
000002c0: a429 8a3d f88e c13c 5636 ddbc 1726 d9bd
000002d0: 2b2e 613d f60b e1bd c5d9 efbd 226a afbd
000002e0: 3b9c 6c3d 00d5 e63d 5b75 4d3c a7ff 6cbd
000002f0: 6f60 cfbd efdf 2bbd 54c0 e2bd 0848 d3bc
00000300: 2746 42bd 1e84 a1bd 7e4c f9bd fe1c 9abc
00000310: dbd5 9cbd cece 9f3c 6528 8b3c b7aa 7dbd
00000320: f94f a23b 10b1 23bd f6ac f9bc 2c8b da3d
00000330: 9c32 f03d 1d9e c0bd 8a8c a8bd ac5e 263d
00000340: 5777 4cbd 3f2b 7f3d dc29 573d 04f7 8f3d
00000350: a69c c1bc 77e7 f1bc dbcf 593d 8270 f1bd
00000360: 9991 ab3d 0fa2 c6bd 8ee1 e4bc cf0f 3dbd
00000370: fd06 12bc 2e07 f13d 1c73 f9bd 4ada fbbd
00000380: a321 613d fba5 723c b84a e0bd c62f 9bbd
00000390: dcff b43d 5e4e c43c cf6f b6bd ab43 c63d
000003a0: abc9 7a3d 835c 383d 2880 1bbd a678 d23c
000003b0: 86f6 e43c 7cd7 16bc 83a5 fdbd 9345 4d3d
000003c0: e6e3 99bc 8a36 c43d bfe3 28bd d6c2 9f3c
000003d0: 42bd 8fbd 449d 88bd 1e0f e83d 5496 f8bd
000003e0: 5b51 ab3d 83bb 69bd e492 eebd fc38 88bd
000003f0: 53f2 18bd 4041 a63d da16 e43d 5368 f43d
0.11636333 -0.01911089 -0.054961313 0.107089475 -0.023188332 0.065068975 -0.056408085 0.00522686
-0.016284283 0.062228985 -0.07157022 -0.10279109 -0.124887876 -0.08666893 -0.009297295 0.015078122
0.113481514 0.061497327 -0.06234301 -0.022586968 0.037229925 0.110400565 -0.0923627 -0.008007613
-0.1215633 -0.06864675 0.042033475 0.0025759162 -0.09768541 -0.10059974 0.07339918 0.07445554
-0.07591278 -0.08735028 -0.09758342 0.089099824 -0.02427898 0.0928099 0.10100993 -0.07618688
-0.09619355 -0.0912008 0.09556367 -0.09178065 -0.08875883 0.0888889 -0.08364322 -0.07863654
-0.07474067 -0.079068474 0.12448123 0.08292578 0.102377094 0.08406378 0.03963548 -0.020862754
0.002114558 0.02353103 0.07029057 0.070879854 0.093998075 -0.041158717 0.10074133 -0.04398072
0.03442219 0.033526745 0.07816055 0.016234038 -0.0014875189 -0.020529132 -0.049018368 0.0849
0.08734989 0.05171665 -0.05066208 0.026102899 -0.038606342 0.05151853 0.067988515 0.11544976
0.09095379 -0.10729548 -0.075281315 0.04563963 0.10335198 -0.095122755 -0.06670216 0.051549893
-0.0553292 0.09320849 -0.054480027 0.0821539 0.044297498 -0.03160229 -0.087552756 0.07842518
-0.110352404 -0.06449221 -0.10998383 0.1171031 0.011840922 -0.020205494 0.0373576 0.11492251
0.063802734 0.102524295 -0.0748575 -0.06693107 0.08951715 0.062144157 -0.009432818 0.097163506
-0.1037836 0.07427302 -0.08830697 -0.08073113 0.019568693 0.09314184 0.08173612 0.012784835
0.059489917 -0.061654296 0.10861961 0.07546311 0.04022911 0.122591764 -0.032634955 -0.064147994
-0.08281147 0.051143613 -0.09684171 0.0007637565 0.11276883 -0.061360266 -0.02677499 0.032505002
-0.080704436 -0.021016493 0.053833123 0.067319274 -0.11899077 -0.12227366 0.05629776 0.043472514
-0.026205478 -0.090480864 0.09923251 0.10645093 -0.05521014 0.08118767 0.0925748 0.022692021
-0.010167253 -0.057769936 0.122610554 0.08260239 0.072910026 0.11047098 -0.022504969 0.0027573064
0.10326217 0.09997655 0.039866906 0.012087148 -0.014410447 0.0030305507 0.07435426 0.089173175
-0.018759202 -0.082988605 0.008880208 -0.015706835 0.12488145 -0.10766712 0.051347345 0.07192543
0.067462236 0.023627743 -0.027003448 -0.10602968 0.05497567 -0.109886095 -0.11711458 -0.08565165
0.05776618 0.11271095 0.012540187 -0.057860997 -0.10125815 -0.041961607 -0.1107184 -0.025791183
-0.047430184 -0.078865275 -0.12172793 -0.018812653 -0.07657977 0.019507792 0.016987035 -0.061930384
0.004953381 -0.03996378 -0.030477982 0.10671076 0.11728403 -0.09405158 -0.08229931 0.04061763
-0.0499185 0.062297102 0.052530155 0.07029536 -0.023634266 -0.029529316 0.053176742 -0.11789037
0.0837738 -0.09698879 -0.027939584 -0.046157654 -0.008912799 0.117689475 -0.121801585 -0.12297495
0.05496372 0.014810081 -0.109517515 -0.075774714 0.08837864 0.02396315 -0.089080445 0.096808754
0.06122748 0.0450101 -0.037964016 0.025692295 0.027949583 -0.009206649 -0.123850845 0.05011518
-0.018785428 0.09580715 -0.04123282 0.019502085 -0.0701852 -0.06670621 0.113310084 -0.12138048
0.08365127 -0.05706359 -0.11649111 -0.06651494 -0.037340473 0.08117914 0.11137171 0.11933961

fc2.bias f4 [16]
00000000: a1c5 68bd cc43 773c da28 29bd 61c6 c9bd
00000010: 75cf fcbd e0e9 983d 6e1b e53d bdee d0bd
00000020: 9bdd e5bc 6cc0 d0bc 4b5f ebbd df71 edbd
00000030: 830a a03c b529 143d 7984 813d bdcc c23d
-0.0568291 0.015091848 -0.041298725 -0.09852291 -0.12344257 0.07466483 0.111868724 -0.10201786
-0.028059771 -0.025482379 -0.11492785 -0.11593985 0.019536262 0.036172587 0.06324095 0.09511707

exp_avg f4 [192, 64]
00000000: c777 28b7 2b28 2837 8efb 28b7 a8e4 2737
00000010: 674c 2937 118c 29b7 cd93 2937 f253 2737
00000020: 8441 2937 f3ff 2737 6b72 2837 6e95 28b7
00000030: fa05 2937 a9c1 2737 bf0d 29b7 7f4e 2837
00000040: 09ea 28b7 5f23 28b7 11ba 28b7 09cd 2837
00000050: 9b75 29b7 c338 29b7 a0a5 28b7 9609 29b7
00000060: 6fba 2737 a5e4 29b7 9322 2937 0db9 29b7
00000070: b8d5 2837 1c20 2837 857e 28b7 9608 2937
00000080: efc1 2737 0e1a 2937 0f9f 2737 6d87 28b7
00000090: 6129 2837 b33d 29b7 107e 2837 706e 2937
000000a0: 2e50 2837 3433 29b7 1f17 2837 da22 2837
000000b0: a4bc 2837 47e4 29b7 fea8 2ab7 79ff 28b7
000000c0: 47fa 29b7 0551 2937 58ba 2737 3388 2837
000000d0: db6e 2837 e417 28b7 8033 2937 2553 29b7
000000e0: f4c3 2737 fef1 29b7 7b68 2837 e987 28b7
000000f0: 45c9 2737 373e 28b7 3164 2937 071a 29b7
00000100: bbfe 28b7 2c00 29b7 5dc1 2937 4fc8 2837
00000110: 2ee1 2937 6075 29b7 7bd3 29b7 8e45 29b7
00000120: cc27 29b7 73b3 2837 949b 2837 0693 2937
00000130: 6cc3 28b7 2222 29b7 a8fa 2837 ab9e 28b7
00000140: 8b1a 2937 933e 28b7 9113 2937 7353 29b7
00000150: d5d3 28b7 d79e 2837 374e 2837 4a4e 28b7
00000160: da18 2937 6d3b 2937 cf1e 29b7 8cda 28b7
00000170: 62eb 2937 0775 28b7 d681 28b7 c0c5 29b7
00000180: ebe7 28b7 706a 2837 7ef0 27b7 5745 29b7
00000190: 47dc 2737 e103 29b7 1b77 29b7 15e2 28b7
000001a0: eb73 29b7 6f00 29b7 4421 2a37 192c 2837
000001b0: 496f 2837 537d 29b7 43e3 28b7 7d51 28b7
000001c0: 7b4b 2837 4f8f 29b7 7f83 28b7 3dfc 28b7
000001d0: 25c7 2737 e76d 28b7 aee1 27b7 df2b 29b7
000001e0: 4b21 29b7 c4c8 28b7 9a7c 28b7 8c6c 29b7
000001f0: 45a8 2937 6027 28b7 ab9e 2937 6971 2837
00000200: 7ba2 29b7 82fb 2837 0976 28b7 0fe6 28b7
00000210: eb9b 29b7 f3f6 29b7 3b43 2837 04bf 28b7
00000220: 8449 2837 2187 29b7 4537 2937 a680 29b7
00000230: ca6d 28b7 1319 2837 0ad0 2837 bb76 2937
00000240: 19a4 2937 4885 29b7 145c 2837 11cc 28b7
00000250: 04fe 27b7 90b7 29b7 f81d 2937 ab50 29b7
00000260: f35e 2837 dc84 2837 0f1c 2837 13f4 28b7
00000270: 9f71 2937 e236 2837 6d07 2837 44a5 29b7
00000280: 7362 2837 f617 28b7 6eb9 28b7 6e95 2937
00000290: ff47 2837 3c49 29b7 54f6 28b7 8fe5 27b7
000002a0: 88c5 2837 8d6f 28b7 6577 29b7 6b7c 28b7
000002b0: 6f62 29b7 97f7 2737 cbc7 2837 7f07 2ab7
000002c0: c3b7 2737 5a93 2837 7cb2 2737 fe7a 28b7
000002d0: c3d5 2837 c1c3 2837 0b90 2837 f026 28b7
000002e0: e24b 28b7 e39a 2737 3f25 28b7 a569 28b7
000002f0: 70b1 2837 6595 2937 8cf5 27b7 4f4d 28b7
00000300: 9fca 2737 efde 27b7 4e63 2837 f3b4 2837
00000310: 989c 29b7 4489 28b7 c78c 2937 f6b2 2837
00000320: 63d9 27b7 d5fa 28b7 9cfe 28b7 4f9d 29b7
00000330: f356 28b7 af8c 2837 2b2d 2937 91bd 2837
00000340: a295 29b7 0b04 29b7 3f07 28b7 a7e1 2937
00000350: 780d 2837 bb17 28b7 eeb9 2837 df91 28b7
00000360: 371c 29b7 0852 2937 3f8f 28b7 9126 28b7
00000370: cf9a 29b7 f131 2937 b35c 2937 3192 2837
00000380: 3428 29b7 0dbf 29b7 3b60 29b7 cd58 2937
00000390: 37d0 2837 53ba 2937 edef 2837 e74f 2837
000003a0: 83a2 27b7 5a48 29b7 ff4b 29b7 9fbb 29b7
000003b0: 7d9f 2837 a788 28b7 c7e4 27b7 76d4 28b7
000003c0: 6bf1 27b7 bb29 29b7 bbed 28b7 e97d 2837
000003d0: 4164 28b7 2130 2937 d36b 28b7 f547 29b7
000003e0: 4c10 28b7 3d95 28b7 9b69 28b7 e9c6 29b7
000003f0: dc0f 2937 fe32 29b7 a1df 2837 0dc0 2837
-1.0041468e-05 1.0022933e-05 -1.007215e-05 1.0007214e-05 1.0090974e-05 -1.0105797e-05 1.01075975e-05 9.973521e-06
1.0088439e-05 1.00135685e-05 1.004022e-05 -1.0048372e-05 1.00745765e-05 9.999066e-06 -1.00763855e-05 1.0031857e-05
-1.0068071e-05 -1.0021816e-05 -1.0056902e-05 1.0061319e-05 -1.0100567e-05 -1.0086401e-05 -1.0052143e-05 -1.0075417e-05
9.997383e-06 -1.012642e-05 1.0081235e-05 -1.01162705e-05 1.0063341e-05 1.0021056e-05 -1.0043038e-05 1.0075184e-05
9.999129e-06 1.0079251e-05 9.991009e-06 -1.0045112e-05 1.0023215e-05 -1.008755e-05 1.00429315e-05 1.0098898e-05
1.0032249e-05 -1.0085107e-05 1.0018964e-05 1.0021695e-05 1.0057502e-05 -1.0126335e-05 -1.0172136e-05 -1.0073062e-05
-1.0131457e-05 1.0092049e-05 9.997362e-06 1.0045292e-05 1.0039391e-05 -1.0019143e-05 1.0085176e-05 -1.0092544e-05
9.9996e-06 -1.0129528e-05 1.0037907e-05 -1.0045224e-05 1.0000837e-05 -1.0028066e-05 1.0096513e-05 -1.0079245e-05
-1.0072889e-05 -1.0073225e-05 1.0118206e-05 1.0060218e-05 1.0125614e-05 -1.01005135e-05 -1.0122424e-05 -1.0089379e-05
-1.0082451e-05 1.0055362e-05 1.0049804e-05 1.01074165e-05 -1.00590805e-05 -1.0081132e-05 1.0071941e-05 -1.0050523e-05
1.0079365e-05 -1.00281495e-05 1.0077741e-05 -1.00926145e-05 -1.0062901e-05 1.0050563e-05 1.0031791e-05 -1.0031808e-05
1.0078971e-05 1.0087021e-05 -1.0080358e-05 -1.0064465e-05 1.0127989e-05 -1.0040828e-05 -1.004381e-05 -1.0119227e-05
-1.0067578e-05 1.0038362e-05 -1.000997e-05 -1.0089329e-05 1.0005263e-05 -1.0074088e-05 -1.0100916e-05 -1.0066219e-05
-1.0100174e-05 -1.0073286e-05 1.0140535e-05 1.0023848e-05 1.0039491e-05 -1.0102364e-05 -1.0066494e-05 -1.0032553e-05
1.00311545e-05 -1.0106552e-05 -1.0044197e-05 -1.0072309e-05 1.0000343e-05 -1.0039169e-05 -1.0006521e-05 -1.00833995e-05
-1.0080937e-05 -1.0060325e-05 -1.0042591e-05 -1.0098458e-05 1.0112363e-05 -1.0022748e-05 1.0110128e-05 1.0039986e-05
-1.0111015e-05 1.0072139e-05 -1.00410625e-05 -1.0067145e-05 -1.0109487e-05 -1.0130682e-05 1.0029234e-05 -1.0058055e-05
1.0030697e-05 -1.0104647e-05 1.0086053e-05 -1.0103138e-05 -1.0039143e-05 1.0019418e-05 1.0062018e-05 1.0100829e-05
1.0111392e-05 -1.0104217e-05 1.0035019e-05 -1.0061093e-05 -1.0013118e-05 -1.0115924e-05 1.0080163e-05 -1.0091967e-05
1.0035687e-05 1.0044514e-05 1.0020113e-05 -1.0070408e-05 1.0099639e-05 1.0026359e-05 1.0015309e-05 -1.0111664e-05
1.0036502e-05 -1.0019159e-05 -1.0056754e-05 1.0107977e-05 1.0030343e-05 -1.0090236e-05 -1.0070933e-05 -1.0007424e-05
1.0059572e-05 -1.0039553e-05 -1.0100984e-05 -1.0042549e-05 -1.0096103e-05 1.0011622e-05 1.0060098e-05 -1.0134535e-05
9.996761e-06 1.0047888e-05 9.995532e-06 -1.0042217e-05 1.0063351e-05 1.0059158e-05 1.0047118e-05 -1.0022646e-05
-1.0031248e-05 9.990038e-06 -1.0022252e-05 -1.0038178e-05 1.0054893e-05 1.0107969e-05 -1.00111465e-05 -1.003158e-05
1.0001152e-05 -1.0005881e-05 1.00367015e-05 1.0055711e-05 -1.0109645e-05 -1.004554e-05 1.0105962e-05 1.0055248e-05
-1.000459e-05 -1.0071982e-05 -1.0072861e-05 -1.0109811e-05 -1.0033825e-05 1.0046336e-05 1.0083701e-05 1.0057717e-05
-1.0108024e-05 -1.0074126e-05 -1.0015267e-05 1.0125724e-05 1.0016716e-05 -1.00191055e-05 1.005687e-05 -1.0047544e-05
-1.0079754e-05 1.0092284e-05 -1.0046932e-05 -1.002256e-05 -1.0109229e-05 1.0084813e-05 1.0094768e-05 1.0047618e-05
-1.00825455e-05 -1.0117667e-05 -1.009559e-05 1.00938605e-05 1.0062059e-05 1.0116567e-05 1.0069442e-05 1.0032184e-05
-9.991813e-06 -1.0090031e-05 -1.0090879e-05 -1.0116869e-05 1.0050714e-05 -1.0045397e-05 -1.0007242e-05 -1.0063048e-05
-1.0010185e-05 -1.0082901e-05 -1.0068931e-05 1.0042896e-05 -1.00369225e-05 1.0084391e-05 -1.0038685e-05 -1.0089939e-05
-1.0017375e-05 -1.0048328e-05 -1.00381685e-05 -1.0119497e-05 1.00768775e-05 -1.00850575e-05 1.0065648e-05 1.0058296e-05
