rlearn/sports/output/sarsa_attacker/test/checkpoints/epoch=1-step=2.ckpt (torch, 395961 bytes, 24 tensors)

encoder._module.weight_ih_l0 f4 [192, 64]
0.09536734 0.103551015 -0.02908408 0.11462644 -0.027187966 0.025023855 -0.060656898 0.07321036
0.10999289 -0.091503546 0.10844955 0.023194931 0.09215113 0.01672884 0.060073532 -0.017448895
0.096160755 0.018276133 -0.058155008 0.031662308 -0.057392098 -0.014459127 -0.05056981 0.0827214
-0.0984713 -0.05742631 -0.03509686 -0.07495908 0.011597911 -0.12325991 0.11268866 -0.105983555
0.09630345 0.020602413 -0.040388085 0.07704377 0.019281365 0.10079545 0.013464982 -0.039221667
0.033385478 -0.03369745 0.052407213 0.111402795 0.07205747 -0.054446585 0.07195811 0.022165798
0.063279405 -0.07598816 -0.12353858 -0.048095085 -0.09567788 0.102367386 0.035803936 0.05157671
0.039332666 -0.0019745152 0.09762606 -0.088614225 0.0076704854 -0.08511755 0.03834402 -0.042847805
0.038102053 -0.025842704 0.103474006 -0.073887765 -0.074349776 -0.074354276 0.112230375 0.04145641
0.120081365 -0.10295956 -0.123784535 -0.09759549 -0.08388616 0.050430037 0.0445595 0.103665575
-0.0643532 -0.085014 0.06612229 -0.05032558 0.075665504 -0.029462598 0.07130577 -0.09692103
-0.06288124 0.037909575 0.026225962 -0.031669863 0.07430871 0.08477618 -0.090446696 -0.06653354
0.11425777 -0.041979082 -0.044114567 -0.120749354 -0.0713838 0.031025477 -0.016299166 -0.090535775
0.0027321065 -0.085185215 -0.1058496 -0.068632856 -0.109201536 -0.079392284 0.124751136 0.023409389
0.038319983 -0.116385564 -0.08189675 -0.041406997 0.01934641 -0.10979019 -0.05365915 -0.0746336
0.00014642722 -0.04631292 -0.008461991 -0.08450374 -0.08559942 -0.07272525 -0.0425872 -0.09846014
0.10460875 -0.024608023 0.10734962 0.038747784 -0.10564964 0.086304426 -0.034193117 -0.047715776
-0.10355882 -0.12407011 0.03556385 -0.0271055 0.048465412 -0.10238294 0.09260367 -0.09155674
-0.021384185 0.02590873 0.064331494 0.10071382 0.11366993 -0.098915294 0.03125843 -0.053565763
-0.013498115 -0.09336129 0.113657355 -0.09154383 0.06660643 0.04372997 0.04041951 -0.06738079
0.11341896 0.02726882 0.015880028 -0.109956875 0.052273583 -0.018552594 -0.057065554 0.10716835
0.02766862 -0.06895958 -0.063067384 -0.005769483 0.06959519 -0.031741746 -0.07112188 -0.042605378
-0.093184374 0.044379078 0.096555054 -0.11748006 0.028831357 0.064374 0.022466192 -0.0443156
0.065042794 0.065489165 0.046540923 -0.021765195 -0.032900177 0.013172636 -0.021881782 -0.03705015
0.07970089 0.10722497 -0.01217469 -0.027787128 0.0016240561 -0.0072635496 0.02985143 0.03482922
-0.11333212 -0.045929737 0.1050662 0.048494387 -0.006017217 -0.075163245 -0.07627566 -0.11177088
-0.040545322 0.04201304 0.079502724 0.057512186 -0.11029303 -0.074970335 -0.019527104 0.12071872
0.017882206 -0.03217136 0.051514424 -0.047410216 -0.080706984 0.09103592 -0.05663774 -0.024858365
-0.12415056 0.08345885 0.09450436 0.045356043 -0.0869593 -0.123167515 -0.1013224 0.09301256
0.05981324 0.10498807 0.06528375 0.03143654 -0.0010241066 -0.09486328 -0.10689655 -0.116718605
0.050970264 -0.061171018 -0.024956593 -0.07173818 -0.022577967 -0.08777939 -0.08147699 0.04126387
-0.036949567 0.07696792 -0.039901115 -0.09149593 -0.021854885 -0.060393445 -0.038042717 -0.11879948
00000000: f44f c33d 8e12 d43d bd41 eebc 44c1 ea3d
00000010: 4cb9 debc d4fe cc3c 5e73 78bd 50ef 953d
00000020: f443 e13d 3666 bbbd cc1a de3d 4c03 be3c
00000030: bbb9 bc3d ec0a 893c aa0f 763d fcf0 8ebc
00000040: eeef c43d d4b7 953c f233 6ebd 56b0 013d
00000050: fa13 6bbd f9e5 6cbc 4a22 4fbd d669 a93d
00000060: 52ab c9bd da37 6bbd bac1 0fbd 2584 99bd
00000070: 2a05 3e3c b16f fcbd 50c9 e63d e80d d9bd
00000080: be3a c53d 64c6 a83c fa6d 25bd 20c9 9d3d
00000090: f4f3 9d3c d86d ce3d 3a9c 5c3c e6a6 20bd
000000a0: 36bf 083d 5606 0abd f2a8 563d 2627 e43d
000000b0: de92 933d 6203 5fbd c65e 933d 0c95 b53c
000000c0: a298 813d ae9f 9bbd cc01 fdbd 5aff 44bd
000000d0: c4f2 c3bd fea5 d13d 26a7 123d 1a42 533d
000000e0: 4a1b 213d de66 01bb 2cf0 c73d 607b b5bd
000000f0: b258 fb3b 1c52 aebd 9e0e 1d3d 2e81 2fbd
00000100: e610 1c3d 14b4 d3bc 2eea d33d 7852 97bd
00000110: b244 98bd 0e47 98bd 0ad9 e53d 32ce 293d
00000120: 38ed f53d 76dc d2bd bf82 fdbd 25e0 c7bd
00000130: 82cc abbd ba8f 4e3d 0684 363d 9e4e d43d
00000140: 9ccb 83bd d21b aebd 206b 873d 3222 4ebd
00000150: 84f6 9a3d 8c5b f1bc c208 923d 887e c6bd
00000160: e1c7 80bd 1247 1b3d d4d7 d63c 42b8 01bd
00000170: 2a2f 983d 229f ad3d 1e3c b9bd bd42 88bd
00000180: faff e93d 42f2 2bbd 7ab1 34bd 704b f7bd
00000190: ab31 92bd 2429 fe3c d485 85bc d26a b9bd
000001a0: 240d 333b 9675 aebd adc7 d8bd 628f 8cbd
000001b0: 0ea5 dfbd 6c98 a2bd 867d ff3d 0cc5 bf3c
000001c0: 6af5 1c3d 8e5b eebd 7cb9 a7bd 629a 29bd
000001d0: 5d7c 9e3c aed9 e0bd b2c9 5bbd 80d9 98bd
000001e0: 428a 1939 9eb2 3dbd 2aa4 0abc 4c10 adbd
000001f0: c04e afbd faf0 94bd ea6f 2ebd 78a5 c9bd
00000200: 1d3d d63d c496 c9bc 1eda db3d ffb5 1e3d
00000210: d75e d8bd 60c0 b03d 150e 0cbd 9e71 43bd
00000220: a616 d4bd 7818 febd 66ab 113d 5b0c debc
00000230: ab83 463d 26ae d1bd fea6 bd3d 1a82 bbbd
00000240: e32d afbc 8c3e d43c 3bc0 833d 0c43 ce3d
00000250: c8cb e83d 1a94 cabd d708 003d c667 5bbd
00000260: 3327 5dbc 3434 bfbd 30c5 e83d 557b bbbd
00000270: f468 883d 321e 333d ee8e 253d f1fe 89bd
00000280: 3348 e83d dc62 df3c d516 823c 1231 e1bd
00000290: d31c 563d 9cfb 97bc 92bd 69bd 147b db3d
000002a0: 4da9 e23c ae3a 8dbd 7929 81bd ee0d bdbb
000002b0: ec87 8e3d a203 02bd 59a8 91bd fa82 2ebd
000002c0: 73d7 bebd d6c6 353d a8be c53d 6399 f0bd
000002d0: bd2f ec3c 84d6 833d 050b b83c 4684 35bd
000002e0: 2835 853d 2f1f 863d b2a1 3e3d ec4c b2bc
000002f0: 56c2 06bd 0ad2 573c 6c41 b3bc e6c1 17bd
00000300: 383a a33d c498 db3d 5a78 47bc d5a1 e3bc
00000310: 48de d43a 1203 eebb fc8a f43c 16a9 0e3d
00000320: ac1a e8bd d220 3cbd f32c d73d 0da2 463d
00000330: 132c c5bb 30ef 99bd 6a36 9cbd 22e8 e4bd
00000340: da12 26bd de15 2c3d 53d2 a23d e691 6b3d
00000350: 50e1 e1bd 0c8a 99bd 4ef7 9fbc 603b f73d
00000360: b47d 923c 1ec6 03bd ca00 533d 3731 42bd
00000370: b449 a5bd 0a71 ba3d fafc 67bd c5a3 cbbc
00000380: a642 febd 79ec aa3d 808b c13d 42c7 393d
00000390: b817 b2bd 403f fcbd 1e82 cfbd 5e7d be3d
000003a0: bafe 743d fc03 d73d 7db3 853d 9ac3 003d
000003b0: 513b 86ba ae47 c2bd 94ec dabd 2a0a efbd
000003c0: 32c6 503d 768e 7abd c571 ccbc 78eb 92bd
000003d0: 6ef5 b8bc aec5 b3bd 68dd a6bd 4e04 293d
000003e0: 6e58 17bd 5ba1 9d3d 5a6f 23bd 3862 bbbd
000003f0: 0409 b3bc 1e5f 77bd aed2 1bbd 244d f3bd

encoder._module.weight_hh_l0 f4 [192, 64]
-0.0025584633 0.043306895 -0.1152415 -0.028868057 -0.0901237 -0.116684064 0.066787854 -0.042742886
-0.1189411 -0.03579729 -0.068838865 0.067371815 -0.01942762 -0.075562134 -0.050894864 -0.027451776
0.09546769 0.011166478 -0.09872161 -0.032165 0.11499475 -0.10661045 -0.046670638 0.10868329
-0.05021476 0.0950131 -0.0816609 0.094419986 0.08239898 -0.023168154 -0.1157503 -0.042079918
0.031106211 -0.041664608 -0.0995623 -0.11028178 0.05932147 0.08990541 -0.047145955 0.004577034
-0.076318994 0.07197355 -0.081940755 -0.07069321 -0.05069559 -0.022755079 0.015247429 -0.117637426
-0.04551386 -0.054050438 -0.025191702 -0.0069160843 0.0056570107 0.06362669 -0.07096341 0.00252729
0.11339407 0.015834384 -0.09265676 0.08535746 -0.11072807 0.05060423 0.10328831 0.015466223
0.06684813 0.09898804 0.056876995 -0.037351735 0.026979439 0.10090192 0.029108353 -0.09914407
0.108570725 0.12093806 0.07233769 0.06775455 0.0700306 -0.07569395 -0.03731907 0.053825863
0.031636216 0.052918203 -0.0021658477 -0.12026198 0.059049614 -0.07842372 -0.103096515 0.12341659
0.054903395 0.06192275 -0.05456642 0.045863785 0.0104235355 0.0850641 0.014422098 0.11152257
-0.029077329 0.11515133 0.12359527 0.014585042 -0.09144893 -4.5771838e-05 0.09929861 -0.085203126
-0.044472985 0.04500062 0.025198914 0.117305264 0.020388775 -0.0007559295 0.016228415 -0.025511451
-0.114876166 -0.0436432 -0.11311337 0.09126055 0.007363149 0.014355147 -0.008475283 -0.063936874
-0.087985784 -0.018932827 0.0376203 -0.06820457 -0.07713498 0.081012934 -0.04320053 0.07022239
0.11946638 0.117288336 -0.09644504 0.009071747 -0.09781329 0.004959234 0.017183296 -0.053903095
0.036900915 -0.038986452 0.0702264 0.0009916807 0.086565375 0.084287465 0.027712874 0.023135968
-0.056375362 -0.0823452 0.08407584 0.082289964 0.019402526 0.10467787 0.065068424 0.08145416
-0.023775853 0.01766815 -0.11218676 -0.11401339 0.05923436 -0.07514927 0.09500243 -0.10066292
-0.103278056 -0.10240778 0.08002235 -0.082654476 -0.10699706 0.052602656 -0.025013216 -0.11885707
0.08845289 0.090396866 0.10006718 0.0782668 -0.09670851 -0.05482743 -0.04892338 -0.12136388
0.08715376 -0.050385125 0.042703412 -0.06336269 0.111814454 0.08787747 0.086071596 0.060981356
0.104433104 0.040668704 0.021160565 -0.027985282 0.101374954 -0.12041375 0.089075476 -0.011627162
-0.0080751125 -0.0819771 -0.054451562 0.023379155 -0.050736107 0.04430064 0.01740951 -0.10620707
0.06811814 -0.054836772 -0.04496292 -0.045804672 0.049189605 -0.12305796 -0.089884445 0.05010479
-0.037674434 -0.02351866 -0.11211075 0.0124766175 0.05862864 -0.044919692 0.009353779 0.0033450357
-0.026269026 0.10062286 0.03198997 0.023559041 -0.0036881797 -0.0024197183 0.06692323 0.0069890856
0.02808597 0.10124467 0.08818209 -0.04567375 -0.10215625 0.03272391 -0.08517438 -0.12411745
0.08563657 -0.10340217 0.12317921 -0.114957795 -0.101579934 0.0716666 0.009445125 -0.054282226
0.04724642 -0.08101614 -0.06869726 -0.12018122 -0.06382893 -0.10716461 0.106910676 -0.05414047
0.02100841 -0.055983193 -0.028437488 0.09111425 0.025239713 0.06015236 0.040643148 -0.10167751
00000000: e4ab 27bb 9262 313d bc03 ecbd b47c ecbc
00000010: c692 b8bd 0ef8 eebd 12c8 883d 2a13 2fbd
00000020: 6497 f3bd 2ea0 12bd 64fb 8cbd 3cfa 893d
00000030: ac26 9fbc 52c0 9abd 2277 50bd 8ce2 e0bc
00000040: 9084 c33d 9af3 363c 8e2e cabd 72bf 03bd
00000050: 5e82 eb3d 9456 dabd b629 3fbd 5895 de3d
00000060: fead 4dbd 3a96 c23d d43d a7bd 445f c13d
00000070: ccc0 a83d 24cb bdbc 7e0e edbd fe5b 2cbd
00000080: 74d2 fe3c 82a8 2abd 52e7 cbbd 6adb e1bd
00000090: 12fb 723d 5420 b83d 1e1c 41bd f2fa 953b
000000a0: 224d 9cbd de66 933d 8ed0 a7bd 9ac7 90bd
000000b0: 2ea6 4fbd dc68 babc 5ad0 793c e4eb f0bd
000000c0: be6c 3abd fe63 5dbd d45e cebc 52a0 e2bb
000000d0: 725e b93b b64e 823d 4455 91bd e4a0 253b
000000e0: 263b e83d 1cb7 813c d4c2 bdbd e4cf ae3d
000000f0: 66c5 e2bd 6246 4f3d d288 d33d 0a66 7d3c
00000100: ace7 883d 3eba ca3d daf7 683d 22fe 18bd
00000110: fc03 dd3c aaa5 ce3d a474 ee3c 0c0c cbbd
00000120: 545a de3d 60ae f73d c825 943d e6c2 8a3d
00000130: 346c 8f3d 6e05 9bbd e2db 18bd 8278 5c3d
00000140: fa94 013d c2c0 583d e5f0 0dbb ea4b f6bd
00000150: 02de 713d 9e9c a0bd 4424 d3bd d6c1 fc3d
00000160: 62e2 603d b6a2 7d3d 0a81 5fbd aadb 3b3d
00000170: 7ac7 2a3c 1636 ae3d aa4a 6c3c f265 e43d
00000180: 9433 eebc 76d4 eb3d 841f fd3d 1af6 6e3c
00000190: 9449 bbbd 23fb 3fb8 125d cb3d fa7e aebd
000001a0: 4e29 36bd 9252 383d f46d ce3c be3d f03d
000001b0: 5c06 a73c 9229 46ba 74f1 843c 64fd d0bc
000001c0: 3244 ebbd 36c3 32bd fca7 e7bd d0e6 ba3d
000001d0: 9246 f13b da31 6b3c eadb 0abc 56f1 82bd
000001e0: e431 b4bd 0419 9bbc be17 1a3d d6ae 8bbd
000001f0: f2f8 9dbd 1cea a53d 0af3 30bd c2d0 8f3d
00000200: caaa f43d de34 f03d fa84 c5bd aaa1 143c
00000210: 5652 c8bd 1281 a23b fcc3 8c3c 7ec9 5cbd
00000220: 6a25 173d 42b0 1fbd dcd2 8f3d 48fb 813a
00000230: 3049 b13d e89e ac3d 1c06 e33c a487 bd3c
00000240: dae9 66bd 9aa4 a8bd f42f ac3d a487 a83d
00000250: 0cf2 9e3c 5a61 d63d 9842 853d 70d1 a63d
00000260: 94c5 c2bc ccbc 903c 2cc2 e5bd da7f e9bd
00000270: ba9f 723d dce7 99bd a290 c23d 5c28 cebd
00000280: 7283 d3bd 2cbb d1bd c2e2 a33d c046 a9bd
00000290: 4621 dbbd e275 573d 84e8 ccbc 566b f3bd
000002a0: ca26 b53d fe21 b93d 06f0 cc3d 584a a03d
000002b0: 1c0f c6bd ba92 60bd e263 48bd a08d f8bd
000002c0: ac7d b23d a260 4ebd c6e9 2e3d 4cc4 81bd
000002d0: fafe e43d 1af9 b33d 4e46 b03d 96c7 793d
000002e0: 06e1 d53d 3a94 263d ec58 ad3c 6441 e5bc
000002f0: ac9d cf3d 7c9b f6bd 346d b63d da7f 3ebc
00000300: 7a4d 04bc 9ce3 a7bd 9a08 5fbd a485 bf3c
00000310: aad0 4fbd 9674 353d 649e 8e3c 1883 d9bd
00000320: 8681 8b3d 869c 60bd 0a2b 38bd ae9d 3bbd
00000330: 0a7b 493d d005 fcbd 5615 b8bd ae3a 4d3d
00000340: 8250 1abd 34aa c0bc 529a e5bd ba6a 4c3c
00000350: 9624 703d b6fd 37bd 9840 193c 6338 5b3b
00000360: 2432 d7bc 5c13 ce3d ea07 033d e4fe c03c
00000370: 63b5 71bb 2394 1ebb 0c0f 893d b304 e53b
00000380: 8c14 e63c 5e59 cf3d d098 b43d 6614 3bbd
00000390: 4c37 d1bd 8209 063d e86f aebd 4a31 febd
000003a0: 3a62 af3d 84c4 d3bd 6245 fc3d fe6e ebbd
000003b0: 2409 d0bd f0c5 923d babf 1a3c 0a57 5ebd
000003c0: 7685 413d caeb a5bd 26b1 8cbd 9221 f6bd
000003d0: beb8 82bd 1e79 dbbd fcf3 da3d 66c2 5dbd
000003e0: d419 ac3c a24e 65bd bcf5 e8bc 1c9a ba3d
000003f0: 84c3 ce3c 5262 763d 6e79 263d 4c3c d0bd

encoder._module.bias_ih_l0 f4 [192]
0.08378042 -0.07530652 0.10649094 -0.04908233 -0.017965937 -0.0063277865 -0.113193914 0.107702486
-0.11784792 0.03604106 -0.05746714 0.05370135 0.035575233 -0.034653135 -0.08611576 0.049826168
0.0531488 -0.1230115 -0.027559318 -0.045883678 -0.002002739 -0.045464642 -0.11814971 0.04118859
0.05511538 0.07252857 0.10314469 0.07353665 -0.07668123 0.12120536 -0.0821003 0.11123456
-0.10849032 -0.067329064 -0.089402005 0.0071532363 -0.04732991 0.113572404 -0.018598253 -0.061112233
-0.09144713 -0.028032534 -0.0663085 -0.027092375 -0.04801578 0.11463417 0.124008134 -0.06772444
0.10285629 -0.01397858 -0.036519863 -0.12131916 -0.08538127 -0.056831427 -0.08002958 -0.081947565
-0.016896509 -0.06349751 -0.08162248 0.09211679 -0.09329056 -0.078445405 -0.041129194 0.090011194
0.0037905534 -0.044588275 -0.08642468 0.0215193 0.105505295 -0.09995459 -0.033326335 -0.07130523
-0.012461491 -0.007588574 -0.060055982 0.070834436 0.031791456 -0.11311152 0.081657685 -0.035515748
-0.0026750935 0.021250015 0.081097715 0.014535659 0.10535017 0.0054472014 -0.044248115 0.104355834
0.09817846 -0.024280053 0.09489153 0.031802945 0.051121138 -0.061581157 -0.11795892 0.048384003
-0.07059988 0.038889088 -0.093126975 -0.03678397 -0.10810062 -0.07375911 -0.014966818 -0.08487045
0.097618274 0.024641672 0.08376634 0.010282182 -0.03786757 -0.121352494 -0.012065702 -0.03310617
0.012763225 -0.08247046 0.094930805 -0.00514203 0.10358505 0.06060525 -0.06811036 -0.012367958
-0.01374405 -0.060659535 0.044248037 0.008348534 0.11838165 0.016464673 0.090041935 0.07756098
0.046296246 -0.11288207 0.06506246 -0.0029914794 0.00052776234 -0.08560737 -0.08414031 0.0637801
0.038800802 0.052716147 -0.11205465 -0.050991215 -0.07613058 -0.07903131 0.059902593 0.004571625
-0.035822727 0.0034365274 -0.035710033 0.0031629587 -0.10596312 0.019054987 0.0884402 0.105501585
0.08088057 -0.042406447 -0.10500917 0.10389883 0.032132782 0.06380825 0.12356561 0.04259676
-0.10535298 0.08494881 -0.05790586 -0.039332293 0.08401738 -0.008211375 0.00776312 0.018475376
0.055026647 -0.02686239 0.10202412 -0.044036448 -0.022522992 -0.009458965 -0.06538281 -0.04051868
-0.03371749 -0.052368656 0.11479649 -0.0052368403 0.12194425 0.119440675 0.030345473 0.06712916
-0.096280776 0.00026018234 0.12116808 -0.01655239 -0.07646216 -0.0007401248 -0.042902213 -0.07942131
00000000: 1295 ab3d 4e3a 9abd ec17 da3d 8e0a 49bd
00000010: 4d2d 93bc 5259 cfbb 36d2 e7bd 1f93 dc3d
00000020: 405a f1bd ca9f 133d aa62 6bbd f2f5 5b3d
00000030: 56b7 113d 72f0 0dbd 765d b0bd 8616 4c3d
00000040: 8eb2 593d 74ed fbbd 14c4 e1bc 86f0 3bbd
00000050: 6340 03bb 2239 3abd 7af8 f1bd 5eb5 283d
00000060: aac0 613d dc89 943d 863d d33d 629a 963d
00000070: 0c0b 9dbd 843a f83d 3424 a8bd f2ce e33d
00000080: 2c30 debd d2e3 89bd 6618 b7bd b265 ea3b
00000090: 02dd 41bd a698 e83d 5d5b 98bc d250 7abd
000000a0: a248 bbbd 7ca4 e5bc c0cc 87bd d4f0 ddbc
000000b0: 32ac 44bd 52c5 ea3d faf7 fd3d 1cb3 8abd
000000c0: 52a6 d23d 6a06 65bc da95 15bd 2e76 f8bd
000000d0: 60dc aebd 12c8 68bd 8ce6 a3bd 20d4 a7bd
000000e0: 8c6a 8abc fc0a 82bd b029 a7bd baa7 bc3d
000000f0: 1f0f bfbd fca7 a0bd 1677 28bd ca57 b83d
00000100: ef6a 783b 32a2 36bd 6cff b0bd 3e49 b03c
00000110: 2913 d83d feb4 ccbd 3281 08bd 7a08 92bd
00000120: 482b 4cbc 93a9 f8bb 43fd 75bd a511 913d
00000130: c237 023d 03a7 e7bd 253c a73d f678 11bd
00000140: 9f50 2fbb 8314 ae3c 8f16 a63d f926 6e3c
00000150: d4c1 d73d 707e b23b 833d 35bd 83b8 d53d
00000160: ca11 c93d f6e6 c6bc 7e56 c23d ce43 023d
00000170: 6664 513d 863c 7cbd 7294 f1bd 4e2e 463d
00000180: ab96 90bd 2a4a 1f3d 5bb9 bebd caaa 16bd
00000190: dc63 ddbd 040f 97bd 6237 75bc 8fd0 adbd
000001a0: 17ec c73d 55dd c93c b08d ab3d 9976 283c
000001b0: 061b 1bbd a887 f8bd 39af 45bc 569a 07bd
000001c0: d81c 513c 46e6 a8bd 156b c23d 797e a8bb
000001d0: 6624 d43d 363d 783d 727d 8bbd faa2 4abc
000001e0: b92e 61bc 2276 78bd 6e3d 353d 4ac8 083c
000001f0: 1472 f23d ece0 863c e867 b83d 4bd8 9e3d
00000200: 22a1 3d3d b72e e7bd 783f 853d b20c 44bb
00000210: 8859 0a3a eb52 afbd c151 acbd 249f 823d
00000220: 97ed 1e3d e3ec 573d e97c e5bd 2adc 50bd
00000230: 59ea 9bbd 2bdb a1bd 6c5c 753d 92cd 953b
00000240: daba 12bd 5d37 613b af44 12bd a449 4f3b
00000250: 3103 d9bd 3419 9c3c 2320 b53d 3711 d83d
00000260: b6a4 a53d 62b2 2dbd 0c0f d7bd e9c8 d43d
00000270: aa9d 033d e6ad 823d f70f fd3d f179 2e3d
00000280: 4ec3 d7bd a4f9 ad3d b22e 6dbd e61a 21bd
00000290: 4e11 ac3d 0189 06bc c561 fe3b ac59 973c
000002a0: 9f63 613d 840e dcbc 06f2 d03d 905f 34bd
000002b0: 2382 b8bc c6f9 1abc 6ce7 85bd eaf6 25bd
000002c0: 5a1b 0abd 8480 56bd 6c1a eb3d cd99 abbb
000002d0: e8bd f93d 509d f43d 1297 f83c 037b 893d
000002e0: db2e c5bd 1569 8839 f826 f83d e198 87bc
000002f0: 3198 9cbd ef04 42ba 3bba 2fbd a4a7 a2bd

encoder._module.bias_hh_l0 f4 [192]
0.06554572 0.035685696 0.035086684 -0.11523904 -0.009365374 0.10984355 0.0103060985 0.118060924
-0.02975846 0.014668503 0.06653921 0.0031426481 0.07040568 0.112021536 0.080693215 0.051997237
0.086132705 0.10104318 -0.113333836 0.08987898 0.08358136 0.06286745 -0.0772661 0.09580849
0.032732032 0.04841224 -0.12407404 0.11263025 -0.10114321 0.05306483 0.12180598 0.069624946
-0.025643699 -0.020884566 -0.0790613 -0.06670806 -0.056248955 0.07142946 0.07781417 -0.030928172
0.04150281 0.02115395 -0.03532637 0.084621996 -0.08691648 0.02489371 0.029273383 -0.004554772
0.023437463 0.08039752 0.046042792 -0.016246326 0.04017494 0.05417212 -0.047973238 -0.08867182
0.06835066 -0.011257509 0.08549431 0.022700764 0.013030598 0.052183203 0.09681234 -0.04066331
0.056338277 -0.02308444 0.054986987 -0.114674374 0.107161574 0.069267824 0.09149957 0.101128824
-0.039456777 -0.012741918 -0.07191145 0.008856169 0.00350731 -0.02168078 -0.052927848 0.09064989
0.08317873 -0.10895704 -0.112350285 -0.066038296 -0.013629668 -0.01397551 0.11563664 0.0018707691
-0.01473848 0.0864184 -0.03614249 0.090006515 -0.022595355 -0.044257365 0.014228888 -0.0917263
0.112763025 0.034082524 0.11088033 0.12388008 0.009114288 -0.0037677365 -0.01185854 -0.071426
0.059475444 -0.08711208 0.10297577 0.053201593 -0.008951703 0.07445647 0.019741425 0.09935939
-0.07246141 -0.09442057 -0.052559294 0.079365104 0.07251993 -0.039644357 -0.028819136 0.06766203
-0.12193114 0.055025987 0.0144021 0.031892516 -0.12163001 0.0060310597 0.016443707 0.09637629
0.10257735 -0.010993429 0.11205394 -0.11766626 -0.0058510676 0.003416874 -0.09457501 0.071400516
0.1113707 -0.05250991 -0.095729224 0.011872361 0.10851267 -0.050256167 -0.045698173 0.05596242
0.10997416 0.11870556 0.11390736 0.089400545 0.06634719 -0.12195835 0.11358675 -0.040669315
-0.10282764 -0.07240763 -0.09202981 -0.09005394 -0.0077738254 0.05700376 -0.09613894 -0.11135079
0.064766064 0.028157616 0.04257334 -0.059122004 0.055416234 -0.0580123 0.1232849 0.034189604
-0.089645155 0.053073384 0.12042388 -0.07310195 0.026970558 -0.046479087 -0.091143996 0.04884266
0.084131956 0.11183145 0.0147043 0.0014714552 -0.007869743 0.07174887 -0.010151157 0.03487902
-0.016915964 -0.0524868 0.08231404 0.05065263 0.03818635 -0.010550687 0.02681401 0.033914115
00000000: d63c 863d 2a2b 123d 0eb7 0f3d 7202 ecbd
00000010: 3a71 19bc a8f5 e03d e9da 283c edc9 f13d
00000020: 04c8 f3bc 2954 703c b645 883d e3f4 4d3b
00000030: da30 903d 8c6b e53d 7c42 a53d 0efb 543d
00000040: 5866 b03d baef ce3d 921b e8bd 7812 b83d
00000050: b42c ab3d a6c0 803d b03d 9ebd 3e37 c43d
00000060: 0612 063d ea4b 463d 881a febd b0aa e63d
00000070: 2c24 cfbd 825a 593d 6a75 f93d 8697 8e3d
00000080: bc12 d2bc 1c16 abbc e4ea a1bd 3c9e 88bd
00000090: 4e65 66bd 9c49 923d 095d 9f3d 145d fdbc
000000a0: dafe 293d 0c4b ad3c 62b2 10bd 4c4e ad3d
000000b0: 4401 b2bd e5ed cb3c bcce ef3c 3240 95bb
000000c0: ecff bf3c 74a7 a43d 5e97 3c3d 0417 85bc
000000d0: 7a8e 243d 96e3 5d3d 967f 44bd 9299 b5bd
000000e0: 6efb 8b3d 6a71 38bc a417 af3d f4f6 b93c
000000f0: 4a7e 553c 0ebe 553d 8c45 c63d 928e 26bd
00000100: f7c2 663d 941b bdbc 093a 613d 66da eabd
00000110: 8777 db3d 4adc 8d3d 2064 bb3d a11c cf3d
00000120: 6e9d 21bd 7ac3 50bc 4f46 93bd 7719 113c
00000130: e6da 653b e49b b1bc dfca 58bd a6a6 b93d
00000140: 9c59 aa3d de24 dfbd e817 e6bd 163f 87bd
00000150: f94e 5fbc 8af9 64bc e7d2 ec3d 9834 f53a
00000160: aa79 71bc 21fc b03d 260a 14bd 5655 b83d
00000170: e519 b9bc 3647 35bd 4820 693c 00db bbbd
00000180: 4df0 e63d 1e9a 0b3d 3a15 e33d d7b4 fd3d
00000190: 1854 153c 21ec 76bb 524a 42bc cb47 92bd
000001a0: 869c 733d d167 b2bd f6e4 d23d eae9 593d
000001b0: 2aaa 12bc a27c 983d c5b8 a13c f07c cb3d
000001c0: a666 94bd 925f c1bd 6a48 57bd 2c8a a23d
000001d0: 5485 943d 1f62 22bd 1c16 ecbc 6492 8a3d
000001e0: 09b7 f9bd ee62 613d c9f6 6b3c baa1 023d
000001f0: 2819 f9bd 32a0 c53b f4b4 863c ef60 c53d
00000200: 1314 d23d c91d 34bc 897c e53d 02fb f0bd
00000210: 50ba bfbb a2ed 5f3b 8bb0 c1bd 6f3a 923d
00000220: 5216 e43d a214 57bd af0d c4bd 4b84 423c
00000230: e43b de3d 69d9 4dbd 022e 3bbd da38 653d
00000240: 223a e13d e71b f33d 4348 e93d a217 b73d
00000250: 09e1 873d 4dc5 f9bd 2ca0 e83d de94 26bd
00000260: 4c97 d2bd 744a 94bd 207a bcbd 336e b8bd
00000270: 93bb febb c67c 693d 7ee4 c4bd e20b e4bd
00000280: 12a4 843d cdaa e63c 6261 2e3d ea29 72bd
00000290: 22fc 623d 4e9e 6dbd cb7c fc3d 660a 0c3d
000002a0: e197 b7bd 7a63 593d cca0 f63d 7ab6 95bd
000002b0: 5cf1 dc3c db60 3ebd b4a9 babd 3e0f 483d
000002c0: 604d ac3d e307 e53d 4eea 703c d8dd c03a
000002d0: 18f0 00bc 12f1 923d 0a51 26bc 4edd 0e3d
000002e0: 5993 8abc 66fc 56bd 4394 a83d 2279 4f3d
000002f0: 4a69 1c3d cadc 2cbc 0ea9 db3c 87e9 0a3d

fc1.weight f4 [64, 92]
0.0034443398 -0.036386423 -0.021775452 -0.06302132 -0.050661307 -0.09916853 0.016832247 -0.06113933
-0.074901715 -0.0026276766 -0.07289865 -0.10208584 0.045965925 0.0491232 -0.017164417 -0.09526268
0.08882156 0.09067822 0.100509174 0.061812587 0.08892091 -0.071708374 -0.10159006 -0.078028694
0.10319448 -0.09264493 -0.028333975 0.10300786 0.10199526 0.032396547 0.10321496 0.015929969
0.06943732 -0.017310085 0.05749744 -0.049772885 0.097699516 -0.099378765 -0.09195535 0.06292992
0.0037585977 0.024539918 -0.05549267 -0.030876102 0.06711326 0.08352036 0.03227798 0.017455041
-0.06352357 0.07788491 0.0030446984 0.012034952 -0.032406047 0.0756374 0.07831044 -0.07664808
0.014458652 0.0005492587 -0.06798449 -0.056721266 -0.048552554 0.054987635 -0.03554105 -0.05586222
-0.027261155 -0.097657345 -0.0659002 -0.04871264 0.09742632 -0.07473694 0.05327869 -0.012897131
0.06850982 -0.045942917 0.0012770084 -0.033626545 0.07880335 -0.077856995 0.029504199 0.10238969
0.09616574 -0.004454039 0.02212443 0.08671488 0.08967385 -0.01353542 -0.014971037 0.057918023
-0.07538986 -0.027277255 -0.007030592 -0.08406422 -0.05392954 -0.09929593 -0.03980847 -0.10198412
0.045930143 -0.030490085 -0.023076516 0.041904453 -0.07836594 -0.022664256 -0.054530755 -0.048433002
0.051194564 0.040299177 -0.05571863 -0.03276661 -0.05097635 -0.013904722 0.0050444505 0.00082665356
-0.018174345 -0.0013927261 0.022898955 -0.010749218 -0.03333074 0.034864817 0.072349645 0.029410852
-0.074236274 -0.028766854 -0.084291026 0.08006724 -0.07566406 -0.056002792 0.049558643 0.071753725
0.0468932 -0.046299893 0.06809516 0.02445498 -0.09863766 -0.013656927 -0.09416193 -0.036253937
0.018647805 -0.09866464 -0.010362968 0.06046494 0.005015667 0.08982789 -0.016272282 -0.0015003887
-0.08576749 -0.028894857 0.016913407 0.078794144 0.0955552 -0.014028145 0.090879366 0.011758863
0.07046365 0.061625265 -0.06818095 0.10063846 0.024649095 -0.05771257 -0.09984672 0.0034281453
-0.036926553 0.087468475 0.03504579 -0.0504258 0.023725357 -0.059350636 0.09606965 0.057591237
0.051402472 0.045226637 -0.010085752 -0.027082544 0.009404817 -0.103908576 -0.0542838 0.011869515
0.07614291 2.1571845e-05 -0.035565913 0.07064501 0.027680106 -0.063720845 0.045740053 0.026239846
-0.08543803 0.019292342 -0.06892022 0.09479575 -0.06541775 -0.017736383 -0.043248575 0.009425513
0.09069157 -0.049360856 0.033209503 -0.022167316 -0.04393283 0.003657004 0.07811443 -0.09400093
-0.04325014 0.07893134 -0.049916174 0.023888465 0.039010562 0.008823451 0.008163654 -0.06955287
-0.016150627 -0.01987974 -0.0050804857 -0.01130252 -0.024185898 -0.061798025 0.0740809 0.030056193
0.03457446 0.051937286 0.0019529144 0.06753033 0.032222193 -0.03130277 0.001252932 -0.09066678
-0.05381858 0.09720851 0.10300914 -0.07435447 -0.04519629 0.05755631 -0.09299706 -0.0113621475
-0.09535078 -0.049129073 -0.054473452 -0.004743402 -0.027520511 -0.05726917 0.05428059 -0.045946687
-0.10234559 0.050561935 0.06829354 -0.022339001 0.002847729 0.013530984 -0.012859643 -0.020980451
-0.08468665 0.045438103 -0.00022033948 0.055094995 0.006680588 -0.04118866 -0.051272012 0.013363727
00000000: 6fba 613b ee09 15bd 6f62 b2bc 5211 81bd
00000010: 3b82 4fbd df18 cbbd c8e3 893c 3c6d 7abd
00000020: 1266 99bd 1935 2cbb e34b 95bd 6212 d1bd
00000030: c446 3c3d 6935 493d 649c 8cbc 1419 c3bd
00000040: 14e8 b53d 81b5 b93d c1d7 cd3d 322f 7d3d
00000050: 2b1c b63d d7db 92bd 730e d0bd 82cd 9fbd
00000060: a157 d33d a0bc bdbd a71c e8bc c9f5 d23d
00000070: e4e2 d03d 3eb2 043d 5d62 d33d 917f 823c
00000080: 2735 8e3d e1cd 8dbc 7082 6b3d a7de 4bbd
00000090: af16 c83d 1887 cbbd 1653 bcbd 67e1 803d
000000a0: ce52 763b f007 c93c 484c 63bd e1ef fcbc
000000b0: ad72 893d b90c ab3d ea35 043d e0fd 8e3c
000000c0: a518 82bd 2082 9f3d 9089 473b 3f2e 453c
000000d0: 34bc 04bd c8e7 9a3d 3961 a03d abf9 9cbd
000000e0: fbe3 6c3c 21fc 0f3a 743b 8bbd 8f54 68bd
000000f0: 0bdf 46bd b73a 613d 7e93 11bd c8cf 64bd
00000100: c952 dfbc 9300 c8bd aff6 86bd e886 47bd
00000110: 7387 c73d ae0f 99bd c13a 5a3d 7d4e 53bc
00000120: e04e 8c3d a42e 3cbd 4b61 a73a fdbb 09bd
00000130: a763 a13d 7d73 9fbd cab2 f13c b0b1 d13d
00000140: 8bf2 c43d 30f3 91bb 4b3e b53c 9297 b13d
00000150: eca6 b73d abc3 5dbc 1549 75bc 733b 6d3d
00000160: 0066 9abd 8d74 dfbc e160 e6bb dd29 acbd
00000170: 39e5 5cbd aa5b cbbd 350e 23bd 0ddd d0bd
00000180: 3f21 3c3d 58c6 f9bc f60a bdbc 01a4 2b3d
00000190: 527e a0bd 64aa b9bc a45b 5fbd af61 46bd
000001a0: 64b1 513d c010 253d 3839 64bd 4836 06bd
000001b0: 94cc 50bd a2d0 63bc eb4b a53b c8b3 583a
000001c0: 5de2 94bc 228c b6ba 9796 bb3c 7d1d 30bc
000001d0: d085 08bd 69ce 0e3d 0d2c 943d 07ef f03c
000001e0: 3009 98bd 77a8 ebbc c6a0 acbd 4bfa a33d
000001f0: c2f5 9abd 2f63 65bd 01fe 4a3d 9ef3 923d
00000200: 1613 403d f5a4 3dbd 7a75 8b3d cf55 c83c
00000210: 8b02 cabd 4ec1 5fbc f8d7 c0bd 027f 14bd
00000220: 48c3 983c b010 cabd 70c9 29bc 16aa 773d
00000230: 775a a43b aff7 b73d 734d 85bc b1a8 c4ba
00000240: dea6 afbd e8b4 ecbc fc8d 8a3c d35e a13d
00000250: 72b2 c33d 4ed6 65bc f61e ba3d 3fa8 403c
00000260: 3f4f 903d c66a 7c3d 74a2 8bbd 891b ce3d
00000270: e6ec c93c 0464 6cbd 707c ccbd bcaa 603b
00000280: 4c40 17bd ac22 b33d 2d8c 0f3d 498b 4ebd
00000290: ae5b c23c a719 73bd 2ac0 c43d cae4 6b3d
000002a0: 668b 523d 913f 393d b63e 25bc 36dc ddbc
000002b0: a916 1a3c 05ce d4bd b158 5ebd 5b78 423c
000002c0: d0f0 9b3d 2ff5 b437 90ad 11bd 55ae 903d
000002d0: 64c1 e23c 1380 82bd ec59 3b3d f2f4 d63c
000002e0: 22fa aebd f90a 9e3c 0b26 8dbd 4624 c23d
000002f0: bef9 85bd e44b 91bc 6b25 31bd 786d 1a3c
00000300: 80bc b93d 9c2e 4abd b006 083d 3b98 b5bc
00000310: e9f2 33bd 59aa 6f3b 75fa 9f3d 8f83 c0bd
00000320: 0f27 31bd c1a6 a13d e774 4cbd beb1 c33c
00000330: 8ac9 1f3d 3c90 103c d9c0 053c bc71 8ebd
00000340: 524e 84bc d6da a2bc 347a a6bb 342e 39bc
00000350: 8121 c6bc ed1f 7dbd bab7 973d 6838 f63c
00000360: f39d 0d3d 31bc 543d eff8 ff3a 574d 8a3d
00000370: 6bfb 033d 5537 00bd 6c39 a43a 81af b9bd
00000380: df70 5cbd 4115 c73d 75f6 d23d 2847 98bd
00000390: bf1f 39bd 2ac0 6b3d 3e75 bebd 4d28 3abc
000003a0: 4547 c3bd 913b 49bd 8e1f 5fbd 8a6e 9bbb
000003b0: b272 e1bc 1493 6abd 5355 5e3d 9832 3cbd
000003c0: 919a d1bd 081a 4f3d 7cdd 8b3d 4800 b7bc
000003d0: f7a0 3a3b 0fb1 5d3c 41b1 52bc 32df abbc
000003e0: 3270 adbd 4e1d 3a3d ee0a 67b9 4aab 613d
000003f0: d5e8 da3b 71b5 28bd 9a02 52bd 89f3 5a3c

fc1.bias f4 [64]
-0.026632857 0.00028217936 0.0395356 0.08522241 0.0054643373 0.021924347 0.030404067 0.10050811
-0.040233932 -0.002441 -0.08849505 0.085691154 -0.009579504 -0.0008525585 0.031643067 -0.029781302
-0.010503707 -0.07376353 0.0051437477 -0.0866691 -0.10367731 -0.040301893 -0.009463377 0.008349374
-0.065391704 0.09490983 0.09565475 -0.10119785 -0.027239712 -0.087880604 0.07651733 -0.019712783
0.051957883 -0.07679447 -0.030071132 0.018543044 0.031807438 0.00525547 0.077071264 -0.039870314
-0.0766115 0.068697624 -0.05496185 -0.021793757 0.054109525 0.018201968 0.04618047 -0.09778214
-0.07083643 0.07748171 0.079395264 0.014119478 0.09330512 -0.019581415 0.0849959 -0.07002393
-0.0840236 0.03184818 -0.057619188 0.021395259 0.042647727 0.09361384 -0.077140465 -0.061591163
00000000: 262d dabc 79f1 9339 15f0 213d 1689 ae3d
00000010: 2f0e b33b b09a b33c f311 f93c 32d7 cd3d
00000020: 56cc 24bd 2ff9 1fbb e53c b5bd d87e af3d
00000030: 5af3 1cbc 3c7e 5fba 299c 013d ebf7 f3bc
00000040: be17 2cbc 5511 97bd e28c a83b 927f b1bd
00000050: c554 d4bd 9913 25bd 480c 1bbc d0cb 083c
00000060: 16ec 85bd 1660 c23d a3e6 c33d d240 cfbd
00000070: d125 dfbc bffa b3bd 1eb5 9c3d b47c a1bc
00000080: cad1 543d 6b46 9dbd bc57 f6bc 95e7 973c
00000090: 8448 023d 1436 ac3b 8ad7 9d3d 0e4f 23bd
000000a0: 7de6 9cbd 57b1 8c3d ad1f 61bd d288 b2bc
000000b0: f3a1 5d3d 4b1c 953c bc27 3d3d 0142 c8bd
000000c0: b112 91bd bbae 9e3d fc99 a23d 6255 673c
000000d0: c116 bf3d 3469 a0bc 5512 ae3d b568 8fbd
000000e0: 9114 acbd 3d73 023d 1902 6cbd 1c45 af3c
000000f0: 62af 2e3d 9db8 bf3d d2fb 9dbd 0447 7cbd

fc2.weight f4 [16, 64]
0.07536834 0.012248437 0.020435037 -0.024966106 0.116663046 -0.01901091 -0.05486133 0.10698983
-0.0234883 0.0653689 -0.056308057 0.0055238316 -0.016184606 0.062129 -0.07147196 -0.10269115
-0.1247879 -0.086968884 -0.009597224 0.014978136 0.113381594 0.06139733 -0.062243037 -0.022486981
0.037129935 0.11030057 -0.0922627 -0.007907617 -0.121463306 -0.06854676 0.04194021 0.0024759003
-0.09758541 -0.10049976 0.07329924 0.074355625 -0.07581281 -0.08725027 -0.09748343 0.08899982
-0.024178993 0.09270992 0.10090996 -0.07608688 -0.096093565 -0.09110082 0.09546368 -0.09168064
-0.08865887 0.08918883 -0.083543226 -0.078536615 -0.07504066 -0.07936843 0.12438124 0.08282582
0.10227713 0.083963804 0.039535493 -0.020762766 0.002414503 0.023831014 0.07019082 0.07078015
0.09429801 -0.04105872 0.101039894 -0.043880735 0.034722134 0.033426777 0.078060694 0.016134087
-0.001387525 -0.020429142 -0.048918355 0.08480002 0.0876491 0.052016582 -0.05056209 0.026402839
-0.03850635 0.0518179 0.067888506 0.11534977 0.09125374 -0.10759543 -0.07518132 0.04553972
0.10325199 -0.095022775 -0.06700209 0.051449902 -0.05562911 0.0931085 -0.054380015 0.08205392
0.04419751 -0.03150232 -0.087452866 0.07832521 -0.11025244 -0.06439221 -0.10988385 0.11702291
0.0121408 -0.020105492 0.037657417 0.11482262 0.064102665 0.1024243 -0.074757464 -0.067231
0.089817055 0.062044214 -0.009332782 0.09706352 -0.10368361 0.074173026 -0.08820699 -0.080631144
0.019468697 0.09344114 0.08163612 0.012684835 0.059389926 -0.061554357 0.10851979 0.07536319
0.040529054 0.12249179 -0.032534968 -0.064048 -0.08271147 0.05104363 -0.096741706 0.0006637906
0.112668835 -0.061260276 -0.026674977 0.03240501 -0.080604464 -0.020916505 0.053733155 0.06761923
-0.11889078 -0.122173704 0.05619774 0.04337252 -0.026105482 -0.09078079 0.09913262 0.106391445
-0.05551 0.08148758 0.09247481 0.022592025 -0.010467131 -0.058069862 0.12291055 0.08250243
0.07281003 0.11037101 -0.022804888 0.0026573348 0.10316218 0.09987656 0.039766923 0.011987135
-0.014310456 0.002930562 0.074654244 0.089073576 -0.018659208 -0.08289123 0.008780251 -0.01600679
0.12518138 -0.107965484 0.05124736 0.07182547 0.06776219 0.02392767 -0.026903467 -0.105929695
0.05487568 -0.1097861 -0.11738565 -0.085551664 0.057666186 0.11261091 0.012840153 -0.057760965
-0.101158164 -0.041861616 -0.11061847 -0.025691181 -0.04733017 -0.07876526 -0.12162793 -0.019112337
-0.076479785 0.019407805 0.01728704 -0.06183041 0.005253208 -0.039863788 -0.03037799 0.10701071
0.11718405 -0.093951605 -0.08219949 0.04051763 -0.049818505 0.062197108 0.05243017 0.0701955
-0.023934202 -0.029429333 0.053076744 -0.118190296 0.083673805 -0.097288676 -0.027839577 -0.04605761
-0.009212749 0.1175895 -0.122101605 -0.122874945 0.05486372 0.014710088 -0.1098172 -0.07567472
0.08827862 0.023863165 -0.08898044 0.09710881 0.061527375 0.044910114 -0.037864015 0.025592295
0.028249485 -0.009506623 -0.12375081 0.050015207 -0.018685436 0.09570713 -0.041132838 0.019402107
-0.07008571 -0.06660621 0.1132101 -0.12128048 0.08355128 -0.057363477 -0.116391115 -0.06641674
00000000: b75a 9a3d abad 483c 6167 a73c b885 ccbc
00000010: 09ed ee3d c5bc 9bbc 46b6 60bd 7c1d db3d
00000020: 896a c0bc 21e0 853d 47a3 66bd 4201 b53b
00000030: 9495 84bc fa7a 7e3d e45f 92bd bd4f d2bd
00000040: cc90 ffbd be1c b2bd ad3d 1dbc db66 753c
00000050: 9c34 e83d c47b 7b3d 8ef2 7ebd 9e36 b8bc
00000060: 8f15 183d 44e5 e13d 3af4 bcbd f38e 01bc
00000070: c1c1 f8bd 3e62 8cbd 7fc9 2b3d b742 223b
00000080: dcda c7bd d1d2 cdbd e91d 963d c347 983d
00000090: bf43 9bbd 45b0 b2bd 64a5 c7bd 8a45 b63d
000000a0: 0613 c6bc b3de bd3d e2a9 ce3d 70d3 9bbd
000000b0: b4cc c4bd 1193 babd 7682 c33d 0fc3 bbbd
000000c0: c892 b5bd a2a8 b63d b618 abbd ced7 a0bd
000000d0: ebae 99bd ea8b a2bd 97bb fe3d 95a0 a93d
000000e0: ac76 d13d 37f5 ab3d f8ef 213d ad16 aabc
000000f0: a33c 1e3b 4239 c33c 34c0 8f3d 2ff5 903d
00000100: 511f c13d 302d 28bd 01ee ce3d 49bc 33bd
00000110: cc38 0e3d 84ea 083d 49de 9f3d a22b 843c
00000120: 9ddd b5ba 045b a7bc 9d5e 48bd a2ab ad3d
00000130: 5f81 b33d 570f 553d 321a 4fbd c44a d83c
00000140: d6b8 1dbd 023f 543d 2109 8b3d 803c ec3d
00000150: 3ee3 ba3d fe5a dcbd aaf8 99bd dc87 3a3d
00000160: c875 d33d 4d9b c2bd 6438 89bd 22bd 523d
00000170: 5adb 63bd abaf be3d 94bd 5ebd e30b a83d
00000180: 7308 353d 9408 01bd 7d1a b3bd f868 a03d
00000190: 08cc e1bd 10e0 83bd c90a e1bd b5a9 ef3d
000001a0: 35ea 463c 46b4 a4bc aa3e 1a3d 1f28 eb3d
000001b0: 4248 833d d5c3 d13d 711a 99bd 68b0 89bd
000001c0: 01f2 b73d 1322 7e3d 86e8 18bc 3dc9 c63d
000001d0: 1358 d4bd 07e8 973d dea5 b4bd f121 a5bd
000001e0: d17c 9f3c 125e bf3d d730 a73d 0ed4 4f3c
000001f0: da42 733d 6c20 7cbd a03f de3d 0458 9a3d
00000200: cb01 263d fadc fa3d 6343 05bd 992b 83bd
00000210: a264 a9bd 2013 513d 8420 c6bd 3c02 2e3a
00000220: ebbe e63d 0eec 7abd 7b85 dabc 1ebb 043d
00000230: f413 a5bd 1759 abbc 4c17 5c3d f37b 8a3d
00000240: 027d f3bd 3536 fabd 9a2f 663d 62a7 313d
00000250: 2adb d5bc 47eb b9bd 0b06 cb3d c2e3 d93d
00000260: 745e 63bd f6e2 a63d 6f63 bd3d e912 b93c
00000270: 547e 2bbc aada 6dbd 87b8 fb3d 09f7 a83d
00000280: 6d1d 953d 320a e23d 51d1 babc ae26 2e3b
00000290: b146 d33d 158c cc3d a4e2 223d b065 443c
000002a0: 6776 6abc ac0e 403b 53e4 983d 356c b63d
000002b0: 32db 98bc e1c2 a9bd 0bdb 0f3c ac20 83bc
000002c0: 8c2f 003e 021d ddbd c0e8 513d 3b19 933d
000002d0: e7c6 8a3d f603 c43c a964 dcbc abf1 d8bd
000002e0: 52c5 603d 89d7 e0bd e367 f0bd b635 afbd
000002f0: 6133 6c3d 8ca0 e63d 815f 523c c396 6cbd
00000300: 032c cfbd 1677 2bbd f08b e2bd 5076 d2bc
00000310: 48dd 41bd ae4f a1bd 1018 f9bd 7a91 9cbc
00000320: 6fa1 9cbd 1efd 9e3c 8d9d 8d3c e241 7dbd
00000330: 1a23 ac3b 3648 23bd 43db f8bc 6e28 db3d
00000340: 31fe ef3d b369 c0bd 3558 a8bd d0f5 253d
00000350: 7d0e 4cbd 65c2 7e3d 05c1 563d a9c2 8f3d
00000360: a911 c4bc c915 f1bc 0067 593d c10d f2bd
00000370: 2c5d ab3d 493f c7bd d30f e4bc e8a6 3cbd
00000380: 12f1 16bc c4d2 f03d 6810 fabd dca5 fbbd
00000390: c8b8 603d 9502 713c d7e7 e0bd 59fb 9abd
000003a0: 6ccb b43d af7c c33c 603b b6bd fce0 c63d
000003b0: 2104 7c3d abf3 373d 4c17 1bbd efa6 d13c
000003c0: 776b e73c abc1 1bbc 1171 fdbd bfdc 4c3d
000003d0: 3312 99bc 1a02 c43d e87a 28bd 2bf1 9e3c
000003e0: 1989 8fbd d668 88bd b2da e73d e661 f8bd
000003f0: ef1c ab3d f7f5 6abd 775e eebd 8005 88bd

fc2.bias f4 [16]
0.02000017 0.021634465 -0.116609 0.089879036 -0.056729116 0.014792029 -0.041198745 -0.098422915
-0.12334258 0.07436502 0.111768715 -0.10191789 -0.027959783 -0.025582355 -0.11482785 -0.11603982
00000000: 66d7 a33c c33a b13c b3d0 eebd 8012 b83d
00000010: ca5c 68bd 445a 723c 04c0 28bd f491 c9bd
00000020: 099b fcbd b04c 983d ffe6 e43d 54ba d0bd
00000030: ea0b e5bc 1692 d1bc dd2a ebbd 49a6 edbd

exp_avg f4 [192, 64]
1.9143838e-05 1.9196832e-05 -1.8715189e-05 1.9249357e-05 -1.8896973e-05 1.9075263e-05 -1.9182631e-05 1.9499428e-05
1.9166228e-05 -1.9456336e-05 1.8658273e-05 1.9259898e-05 1.9714033e-05 1.9556654e-05 1.9576459e-05 -1.902344e-05
1.9286184e-05 1.9092513e-05 -1.9155965e-05 1.9634857e-05 -1.898021e-05 -1.909392e-05 -1.9582492e-05 1.920134e-05
-1.8313143e-05 -1.8999166e-05 -1.8815917e-05 -1.9312725e-05 1.8883424e-05 -1.9612173e-05 1.9204832e-05 -1.9301558e-05
1.928307e-05 1.9338517e-05 -1.9159628e-05 1.9072462e-05 1.8828894e-05 1.9041858e-05 1.900477e-05 -1.9095909e-05
1.9135656e-05 -1.9001047e-05 1.9198353e-05 1.9169403e-05 1.9093506e-05 -1.902315e-05 1.8920011e-05 1.9044552e-05
1.9099469e-05 -1.848147e-05 -1.8965944e-05 -1.9403835e-05 -1.9545965e-05 1.922462e-05 1.9117024e-05 1.9112222e-05
1.8946972e-05 -1.95129e-05 1.9272074e-05 -1.9255789e-05 1.9136205e-05 -1.917805e-05 1.9077253e-05 -1.8964114e-05
1.9050258e-05 -1.9155708e-05 1.916465e-05 -1.9156098e-05 -1.9139168e-05 -1.9141891e-05 1.9096047e-05 1.9017501e-05
1.916061e-05 -1.9277977e-05 -1.921648e-05 -1.9194813e-05 -1.9156349e-05 1.9082678e-05 1.9078901e-05 1.9197878e-05
-1.9161565e-05 -1.9155024e-05 1.9136001e-05 -1.9180787e-05 1.9141504e-05 -1.90774e-05 1.8988236e-05 -1.9185978e-05
-1.919582e-05 1.9073359e-05 1.9010891e-05 -1.9060562e-05 1.9165549e-05 1.900415e-05 -1.9172347e-05 -1.9135043e-05
1.9161187e-05 -1.9094714e-05 -1.9107601e-05 -1.9260657e-05 -1.9060924e-05 1.905303e-05 -1.9092591e-05 -1.916117e-05
1.9000883e-05 -1.9116582e-05 -1.9405443e-05 -1.9240357e-05 -1.9187422e-05 -1.9170127e-05 1.9135538e-05 1.9051276e-05
1.905458e-05 -1.9243113e-05 -1.9271292e-05 -1.909283e-05 1.8975577e-05 -1.9233166e-05 -1.9220472e-05 -1.9136618e-05
1.902058e-05 -1.9106026e-05 -1.9015866e-05 -1.9166615e-05 -1.918243e-05 -1.9136181e-05 -1.9080859e-05 -1.9181118e-05
2.0186273e-05 -1.903394e-05 1.9287905e-05 1.902201e-05 -1.9280005e-05 1.7901495e-05 -1.8380248e-05 -1.944509e-05
-2.0261614e-05 -1.935495e-05 2.0328273e-05 -1.9679908e-05 1.8002294e-05 -2.0209798e-05 1.7924805e-05 -1.9170991e-05
-1.9249455e-05 1.8949944e-05 1.9218507e-05 1.8129018e-05 1.898215e-05 -1.9039951e-05 1.9699364e-05 -1.9011964e-05
-2.0483567e-05 -1.9465802e-05 1.9083905e-05 -1.9265075e-05 1.9280775e-05 1.8991732e-05 1.9224351e-05 -1.8398188e-05
2.029191e-05 1.840447e-05 1.9521314e-05 -1.9500865e-05 1.8937733e-05 -1.9548215e-05 -1.9068617e-05 1.9269888e-05
1.9186764e-05 -1.9345596e-05 -1.9393461e-05 -1.9587125e-05 1.9397577e-05 -1.8691466e-05 -1.9240391e-05 -1.9060964e-05
-1.9719493e-05 1.8769495e-05 1.897338e-05 -1.8518751e-05 1.9018766e-05 1.8537045e-05 1.8460745e-05 -1.9021041e-05
1.9254223e-05 2.0041927e-05 1.912641e-05 -1.9266005e-05 -1.961771e-05 1.9033816e-05 -1.9040745e-05 -1.9211804e-05
1.934232e-05 1.9234554e-05 -1.8836432e-05 -1.8648134e-05 1.9004583e-05 -1.8975623e-05 1.9091329e-05 1.9442048e-05
-1.9051751e-05 -1.8557188e-05 1.99128e-05 2.0524461e-05 -1.8866042e-05 -1.9055982e-05 -1.9085164e-05 -1.9205077e-05
-1.9056031e-05 1.9051635e-05 1.9511579e-05 1.9428613e-05 -1.9206382e-05 -1.9024485e-05 -1.7568693e-05 1.9228675e-05
1.9467543e-05 -1.906162e-05 1.918295e-05 -1.8002798e-05 -1.8590488e-05 2.0849126e-05 -1.9110694e-05 -1.8569863e-05
-1.9051213e-05 1.9683393e-05 1.9402034e-05 1.9799425e-05 -1.8679913e-05 -1.8869328e-05 -1.9182271e-05 1.9237543e-05
1.9520918e-05 2.0085383e-05 1.9959003e-05 1.9793151e-05 -1.8704233e-05 -1.8748615e-05 -1.8516414e-05 -1.9201767e-05
1.9118568e-05 -1.9006991e-05 -1.836068e-05 -1.8675013e-05 -1.8205592e-05 -1.9118655e-05 -1.9063475e-05 1.9080968e-05
-1.8881601e-05 1.9851652e-05 -1.903317e-05 -1.9173374e-05 -1.8958022e-05 -1.9113095e-05 -1.90749e-05 -1.897516e-05
00000000: 1497 a037 e208 a137 90fe 9cb7 ae79 a137
00000010: f184 9eb7 d103 a037 63ea a0b7 b492 a337
00000020: 29c7 a037 2a36 a3b7 5684 9c37 5190 a137
00000030: 905f a537 980d a437 2038 a437 8794 9fb7
00000040: c4c8 a137 dc28 a037 1fb1 a0b7 89b5 a437
00000050: b137 9fb7 e22b a0b7 1545 a4b7 9012 a137
00000060: 2d9f 99b7 6660 9fb7 e0d6 9db7 c301 a2b7
00000070: d867 9e37 d284 a4b7 101a a137 c8e9 a1b7
00000080: 14c2 a137 2639 a237 fdb8 a0b7 cdfd 9f37
00000090: bef2 9d37 14bc 9f37 6f6c 9f37 2730 a0b7
000000a0: 8285 a037 7064 9fb7 260c a137 fbcd a037
000000b0: fe2a a037 e793 9fb7 6ab6 9e37 ddc1 9f37
000000c0: cc37 a037 a808 9bb7 0e19 9fb7 6bc5 a2b7
000000d0: a4f6 a3b7 8f44 a137 7f5d a037 2f53 a037
000000e0: 50f0 9e37 a2af a3b7 77aa a137 7e87 a1b7
000000f0: b086 a037 8ce0 a0b7 1708 a037 2015 9fb7
00000100: 1ece 9f37 92b0 a0b7 c6c3 a037 68b1 a0b7
00000110: 0d8d a0b7 e692 a0b7 7330 a037 c687 9f37
00000120: 19bb a037 24b7 a1b7 1433 a1b7 8c04 a1b7
00000130: f2b1 a0b7 bd13 a037 a10b a037 210b a137
00000140: 26bd a0b7 1aaf a0b7 4086 a037 6de6 a0b7
00000150: 1192 a037 6808 a0b7 ed48 9f37 93f1 a0b7
00000160: b606 a1b7 baff 9f37 9479 9f37 3fe4 9fb7
00000170: b4c5 a037 1a6b 9f37 4dd4 a0b7 3184 a0b7
00000180: 56bc a037 962d a0b7 4349 a0b7 f291 a1b7
00000190: 06e5 9fb7 12d4 9f37 0729 a0b7 4dbc a0b7
000001a0: 1664 9f37 8c5c a0b7 dfc8 a2b7 5a66 a1b7
000001b0: adf4 a0b7 89cf a0b7 4185 a037 4ed0 9f37
000001c0: 66d7 9f37 456c a1b7 c9a8 a1b7 8a29 a0b7
000001d0: be2d 9f37 e956 a1b7 a63b a1b7 9387 a0b7
000001e0: 628e 9f37 e145 a0b7 4384 9fb7 fec7 a0b7
000001f0: f4e9 a0b7 a386 a0b7 d50f a0b7 23e7 a0b7
00000200: b155 a937 13ab 9fb7 76cc a137 7591 9f37
00000210: 7fbb a1b7 2b2b 9637 482f 9ab7 031e a3b7
00000220: 7cf7 a9b7 705c a2b7 a286 aa37 4816 a5b7
00000230: a203 9737 3688 a9b7 3a5d 9637 64d1 a0b7
00000240: e479 a1b7 b2f6 9e37 6e37 a137 c513 9837
00000250: db3b 9f37 fcb7 9fb7 1040 a537 e27b 9fb7
00000260: 20d4 abb7 7e4a a3b7 6016 a037 6f9b a1b7
00000270: 26bd a137 6f50 9f37 fb43 a137 cf55 9ab7
00000280: 8b38 aa37 4c63 9a37 b4c1 a337 ca95 a3b7
00000290: 79dc 9e37 79fb a3b7 8bf5 9fb7 c5a5 a137
000002a0: 43f3 a037 5a48 a2b7 24af a2b7 084f a4b7
000002b0: fbb7 a237 9ecb 9cb7 6d66 a1b7 1ce5 9fb7
000002c0: 4a6b a5b7 2f73 9d37 0629 9f37 b758 9bb7
000002d0: 7d8a 9f37 0080 9b37 26dc 9a37 608f 9fb7
000002e0: 2184 a137 b61f a837 a771 a037 6e9d a1b7
000002f0: b690 a4b7 cfaa 9f37 b0b9 9fb7 0929 a1b7
00000300: 5141 a237 e459 a137 ee02 9eb7 906e 9cb7
00000310: 086c 9f37 d72d 9fb7 5126 a037 7b17 a337
00000320: 53d1 9fb7 42ab 9bb7 6a0a a737 f22b ac37
00000330: 8442 9eb7 69da 9fb7 1419 a0b7 971a a1b7
00000340: 84da 9fb7 13d1 9f37 ccac a337 a1fa a237
00000350: 641d a1b7 c596 9fb7 7b60 93b7 444d a137
00000360: 3b4e a337 84e6 9fb7 12eb a037 b704 97b7
00000370: c5f2 9bb7 28e5 ae37 e74f a0b7 7ac6 9bb7
00000380: 2bd0 9fb7 c41d a537 8dc1 a237 f116 a637
00000390: cfb2 9cb7 9349 9eb7 9de9 a0b7 4f60 a137
000003a0: dac0 a337 087d a837 a26d a737 7809 a637
000003b0: 09e7 9cb7 5846 9db7 b253 9bb7 7b13 a1b7
000003c0: d060 a037 3471 9fb7 4305 9ab7 49a8 9cb7
000003d0: 36b8 98b7 0061 a0b7 80ea 9fb7 1110 a037
000003e0: ee63 9eb7 1987 a637 6ca9 9fb7 82d6 a0b7
000003f0: 0b08 9fb7 0f55 a0b7 0903 a0b7 d92c 9fb7
