rlearn/sports/output/sarsa_attacker/test/checkpoints/epoch=2-step=3-v8.ckpt (torch, 395952 bytes, 24 tensors)

encoder._module.weight_ih_l0 f4 [192, 64]
000000 88 1b c3 3d 22 de d3 3d 0a 70 ed bc d8 8c ea 3d
       0.095267355 0.10345103 -0.028984088 0.11452645
000010 9a e7 dd bc 22 2d cc 3c 85 0a 78 bd e4 ba 95 3d
       -0.027087975 0.024923865 -0.060556907 0.07311037
000020 88 0f e1 3d ca 31 bb bd 60 e6 dd 3d 9a 31 bd 3c
       0.109892905 -0.09140356 0.10834956 0.02309494
000030 50 85 bc 3d 3a 39 88 3c d1 a6 75 3d 4a 1f 8e bc
       0.09205115 0.01662885 0.05997354 -0.017348904
000040 82 bb c4 3d 22 e6 94 3c 19 cb 6d bd 7d 47 01 3d
       0.09606077 0.018176142 -0.058055017 0.031562317
000050 21 ab 6a bd 97 42 6b bc 71 b9 4e bd 6a 35 a9 3d
       -0.057292107 -0.014359138 -0.05046982 0.08262141
000060 e6 76 c9 bd 01 cf 6a bd e1 58 0f bd ba 4f 99 bd
       -0.09837131 -0.05732632 -0.03499687 -0.0748591
000070 c7 61 3c 3c 46 3b fc bd e4 94 e6 3d 7c d9 d8 bd
       0.011497921 -0.12315993 0.112588674 -0.10588357
000080 52 06 c5 3d b2 f4 a7 3c 21 05 25 bd b4 94 9d 3d
       0.09620346 0.020502422 -0.040288094 0.076943785
000090 42 22 9d 3c 6c 39 ce 3d d7 f8 5a 3c 0d 3e 20 bd
       0.019181374 0.10069546 0.013364992 -0.039121676
0000a0 5d 56 08 3d 7d 9d 09 bd 19 40 56 3d ba f2 e3 3d
       0.033285487 -0.03359746 0.052307222 0.11130281
0000b0 72 5e 93 3d 89 9a 5e bd 5a 2a 93 3d 5a c3 b4 3c
       0.071957484 -0.054346595 0.07185812 0.022065807
0000c0 36 64 81 3d 42 6b 9b bd 60 cd fc bd 81 96 44 bd
       0.06317942 -0.07588817 -0.1234386 -0.047995094
0000d0 58 be c3 bd 92 71 d1 3d 4d 3e 12 3d 41 d9 52 3d
       -0.095577896 0.1022674 0.035703946 0.05147672
0000e0 71 b2 20 3d ad b2 f5 ba c0 bb c7 3d f4 46 b5 bd
       0.039232675 -0.0018745266 0.09752607 -0.08851424
0000f0 eb 11 f8 3b b0 1d ae bd c5 a5 1c 3d 55 18 2f bd
       0.0075704954 -0.08501756 0.038244028 -0.042747814
000100 0d a8 1b 3d 62 e2 d2 bc c2 b5 d3 3d 0c 1e 97 bd
       0.038002063 -0.025742713 0.10337402 -0.07378778
000110 46 10 98 bd a2 12 98 bd 9e a4 e5 3d 59 65 29 3d
       -0.07424979 -0.07425429 0.11213039 0.04135642
000120 cc b8 f5 3d 0a a8 d2 bd 54 4e fd bd ba ab c7 bd
       0.11998138 -0.10285957 -0.123684555 -0.09749551
000130 16 98 ab bd e1 26 4e 3d 2d 1b 36 3d 32 1a d4 3d
       -0.083786175 0.050330047 0.04445951 0.10356559
000140 30 97 83 bd 66 e7 ad bd b4 36 87 3d 59 b9 4d bd
       -0.06425321 -0.084914014 0.06602231 -0.05022559
000150 18 c2 9a 3d da 89 f0 bc 56 d4 91 3d 1c 4a c6 bd
       0.07556552 -0.029362608 0.07120578 -0.09682104
000160 76 93 80 bd 39 de 1a 3d 22 06 d6 3c 69 4f 01 bd
       -0.06278126 0.037809584 0.026125971 -0.031569872
000170 be fa 97 3d b6 6a ad 3d b2 07 b9 bd 52 0e 88 bd
       0.07420872 0.08467619 -0.09034671 -0.066433564
000180 8e cb e9 3d 69 89 2b bd a1 48 34 bd 04 17 f7 bd
       0.11415778 -0.04187909 -0.044014577 -0.12064937
000190 40 fd 91 bd 72 57 fd 3c 22 b4 84 bc 66 36 b9 bd
       -0.07128382 0.030925486 -0.016199175 -0.09043579
0001a0 97 7f 2c 3b 2a 41 ae bd 42 93 d8 bd f6 5a 8c bd
       0.0026321167 -0.08508523 -0.10574962 -0.06853287
0001b0 a2 70 df bd 00 64 a2 bd 1a 49 ff 3d 5a f3 be 3c
       -0.10910155 -0.0792923 0.12465115 0.023309398
0001c0 91 8c 1c 3d 22 27 ee bd 10 85 a7 bd 89 31 29 bd
       0.038219992 -0.11628558 -0.081796765 -0.041307006
0001d0 aa aa 9d 3c 42 a5 e0 bd d9 60 5b bd 14 a5 98 bd
       0.019246418 -0.109690204 -0.053559158 -0.07453361
0001e0 c2 c5 42 38 c5 49 3d bd c7 00 09 bc e0 db ac bd
       4.643738e-05 -0.04621293 -0.008362002 -0.08440375
0001f0 54 1a af bd 8e bc 94 bd 11 07 2e bd 0c 71 c9 bd
       -0.085499436 -0.072625265 -0.042487208 -0.09836015
000200 b2 08 d6 3d 12 c5 c8 bc b2 a5 db 3d 25 4d 1e 3d
       0.10450877 -0.024508033 0.10724963 0.03864779
000210 6c 2a d8 bd f4 8b b0 3d 3d a5 0b bd c5 08 43 bd
       -0.10554966 0.08620444 -0.03409313 -0.047615785
000220 3c e2 d3 bd 0c e4 fd bd 8d 42 11 3d aa 3a dd bc
       -0.10345885 -0.12397012 0.03546386 -0.027005512
000230 d1 1a 46 3d bc 79 d1 bd 92 72 bd 3d ae 4d bb bd
       0.048365418 -0.10228297 0.09250368 -0.091456756
000240 32 5c ae bc da 6c d3 3c d0 8b 83 3d a0 0e ce 3d
       -0.021284197 0.02580874 0.064231515 0.10061383
000250 5c 97 e8 3d ae 5f ca bd fa 3f ff 3c ed fe 5a bd
       0.113569945 -0.09881531 0.031158436 -0.053465772
000260 d7 83 5b bc c8 ff be bd c4 90 e8 3d ea 46 bb bd
       -0.013398132 -0.0932613 0.11355737 -0.09144385
000270 88 34 88 3d 59 b5 32 3d 15 26 25 3d 86 ca 89 bd
       0.066506445 0.043629978 0.04031952 -0.067280814
000280 c8 13 e8 3d 2a 91 de 3c 22 45 81 3c a6 fc e0 bd
       0.11331898 0.027168829 0.015780035 -0.10985689
000290 f9 b3 55 3d ea 29 97 bc b9 54 69 bd a8 46 db 3d
       0.05217359 -0.018452603 -0.056965563 0.10706836
0002a0 9a d7 e1 3c 42 06 8d bd 0e f5 80 bd 2b c7 b9 bb
       0.027568627 -0.06885959 -0.062967405 -0.0056694946
0002b0 80 53 8e 3d c9 9a 01 bd ee 73 91 bd 21 1a 2e bd
       0.0694952 -0.031641755 -0.0710219 -0.042505387
0002c0 08 a3 be bd fd 5d 35 3d 3c 8a c5 3d f8 64 f0 bd
       -0.093084395 0.044279087 0.09645507 -0.11738008
0002d0 0a 5e eb 3c 18 a2 83 3d 52 39 b7 3c 6d 1b 35 bd
       0.028731365 0.06427401 0.0223662 -0.04421561
0002e0 bc 00 85 3d c4 ea 85 3d d9 38 3e 3d 3a 7b b1 bc
       0.06494281 0.065389186 0.046440933 -0.021665204
0002f0 7d 59 06 bd a7 2e 56 3c ba 6f b2 bc 0d 59 17 bd
       -0.032800186 0.013072646 -0.021781791 -0.03695016
000300 cc 05 a3 3d 58 64 db 3d f7 d4 45 bc 22 d0 e2 bc
       0.0796009 0.107124984 -0.012074701 -0.027687136
000310 2e c3 c7 3a 4b bc ea bb 4a b9 f3 3c 3d 40 0e 3d
       0.0015240663 -0.0071635596 0.029751439 0.03472923
000320 40 e6 e7 bd f9 b7 3b bd 88 f8 d6 3d 35 39 46 3d
       -0.113232136 -0.045829747 0.10496622 0.0483944
000330 4b e5 c1 bb c4 ba 99 bd fe 01 9c bd b6 b3 e4 bd
       -0.0059172264 -0.07506326 -0.076175675 -0.1116709
000340 01 aa 25 bd 05 ad 2b 3d e8 9d a2 3d 0d 29 6b 3d
       -0.04044533 0.04191305 0.079402745 0.057412196
000350 e4 ac e1 bd a0 55 99 bd 9a 25 9f bc f4 06 f7 3d
       -0.110193044 -0.07487035 -0.01942711 0.12061873
000360 02 ac 91 3c 45 5d 03 bd f1 97 52 3d 5d c8 41 bd
       0.017782215 -0.03207137 0.051414434 -0.047310222
000370 48 15 a5 bd a0 3c ba 3d 21 94 67 bd 12 d2 ca bc
       -0.080607 0.090935946 -0.05653775 -0.024758372
000380 3a 0e fe bd 0e b8 aa 3d 14 57 c1 3d 69 5e 39 3d
       -0.12405057 0.08335887 0.09440437 0.045256052
000390 4c e3 b1 bd d4 0a fc bd b2 4d cf bd f2 48 be 3d
       -0.086859316 -0.12306753 -0.10122241 0.09291257
0003a0 e1 95 74 3d 92 cf d6 3d 12 7f 85 3d c1 5a 00 3d
       0.05971325 0.1048881 0.06518377 0.03133655
0003b0 5c 40 72 ba 42 13 c2 bd 28 b8 da bd be d5 ee bd
       -0.00092411577 -0.094763294 -0.10679656 -0.11661862
0003c0 59 5d 50 3d 9d 25 7a bd 12 a0 cb bc 0c b7 92 bd
       0.050870273 -0.061071027 -0.0248566 -0.0716382
0003d0 ba 23 b8 bc 42 91 b3 bd fc a8 a6 bd 75 9b 28 3d
       -0.022477973 -0.0876794 -0.081377 0.04116388
0003e0 95 ef 16 bd f0 6c 9d 3d 81 06 23 bd cc 2d bb bd
       -0.036849577 0.07686794 -0.039801124 -0.091395944
0003f0 52 37 b2 bc 45 f6 76 bd d5 69 1b bd b8 18 f3 bd
       -0.021754894 -0.060293455 -0.037942726 -0.11869949

encoder._module.weight_hh_l0 f4 [192, 64]
000000 56 1e 21 bb b9 f9 30 3d 50 cf eb bd 02 ab eb bc
       -0.0024584732 0.043206904 -0.11514151 -0.028768066
000010 5a 5e b8 bd a2 c3 ee bd a6 93 88 3d 51 aa 2e bd
       -0.09002371 -0.11658408 0.06668787 -0.042642895
000020 f8 62 f3 bd 55 37 12 bd f8 c6 8c bd d0 c5 89 3d
       -0.11884111 -0.0356973 -0.06873888 0.06727183
000030 fa 54 9e bc e6 8b 9a bd 49 0e 50 bd da 10 e0 bc
       -0.01932763 -0.07546215 -0.050794873 -0.027351785
000040 24 50 c3 3d 37 50 35 3c 22 fa c9 bd 99 56 03 bd
       0.0953677 0.011066488 -0.09862162 -0.032065008
000050 f2 4d eb 3d 28 22 da bd dd c0 3e bd ec 60 de 3d
       0.11489476 -0.10651046 -0.046570648 0.1085833
000060 25 45 4d bd ce 61 c2 3d 68 09 a7 bd d8 2a c1 3d
       -0.05011477 0.09491311 -0.08156091 0.09432
000070 60 8c a8 3d 72 f9 bc bc 12 da ec bd 25 f3 2b bd
       0.082298994 -0.023068164 -0.11565031 -0.041979928
000080 c2 00 fe 3c a9 3f 2a bd e6 b2 cb bd fe a6 e1 bd
       0.03100622 -0.041564617 -0.099462315 -0.11018179
000090 39 92 72 3d e8 eb b7 3d 45 b3 40 bd 2b b4 92 3b
       0.05922148 0.089805424 -0.047045965 0.004477044
0000a0 b6 18 9c bd 72 32 93 3d 22 9c a7 bd 2e 93 90 bd
       -0.07621901 0.07187356 -0.08184077 -0.07059322
0000b0 55 3d 4f bd 2a 97 b9 bc f7 2c 78 3c 78 b7 f0 bd
       -0.0505956 -0.022655088 0.015147439 -0.11753744
0000c0 e5 03 3a bd 25 fb 5c bd 22 8d cd bc 8b 59 df bb
       -0.04541387 -0.053950448 -0.025091711 -0.0068160943
0000d0 ab 17 b6 3b 4a 1a 82 3d d8 20 91 bd 57 13 1f 3b
       0.0055570207 0.063526705 -0.070863426 0.0024273002
0000e0 ba 06 e8 3d 6a e5 80 3c 68 8e bd bd 78 9b ae 3d
       0.11329408 0.015734393 -0.092556775 0.08525747
0000f0 fa 90 e2 bd 89 dd 4e 3d 66 54 d3 3d a7 c2 7b 3c
       -0.11062808 0.05050424 0.10318832 0.015366233
000100 40 b3 88 3d d2 85 ca 3d 01 8f 68 3d 49 95 18 bd
       0.06674814 0.098888054 0.056777004 -0.037251744
000110 4a 32 dc 3c 3e 71 ce 3d f2 a2 ed 3c a0 d7 ca bd
       0.026879448 0.10080193 0.029008362 -0.099044085
000120 e8 25 de 3d f4 79 f7 3d 5c f1 93 3d 7a 8e 8a 3d
       0.10847074 0.120838076 0.0722377 0.067654565
000130 c8 37 8f 3d 02 d1 9a bd 09 73 18 bd a9 0f 5c 3d
       0.06993061 -0.07559396 -0.03721908 0.053725872
000140 21 2c 01 3d e9 57 58 3d 56 63 07 bb 7e 17 f6 bd
       0.031536225 0.052818213 -0.0020658574 -0.120161995
000150 29 75 71 3d 32 68 a0 bd d8 ef d2 bd 6a 8d fc 3d
       0.058949623 -0.07832374 -0.10299653 0.1233166
000160 89 79 60 3d dd 39 7d 3d 31 18 5f bd d1 72 3b 3d
       0.054803405 0.06182276 -0.05446643 0.045763794
000170 17 24 29 3c aa 01 ae 3d 47 a7 6a 3c 86 31 e4 3d
       0.010323546 0.08496411 0.014322109 0.11142258
000180 e2 61 ed bc 0a a0 eb 3d 18 eb fc 3d b7 52 6d 3c
       -0.028977338 0.115051344 0.12349528 0.014485053
000190 28 15 bb bd b0 a2 ba b6 a6 28 cb 3d 8e 4a ae bd
       -0.091348946 -5.5621713e-06 0.099198624 -0.08510314
0001a0 75 c0 35 bd b9 e9 37 3d 42 9c cd 3c 52 09 f0 3d
       -0.044372994 0.04490063 0.025098924 0.11720528
0001b0 aa 34 a6 3c 5c f3 2b ba c2 1f 84 3c b2 2b d0 bc
       0.020288784 -0.00065593957 0.016128425 -0.02541146
0001c0 c6 0f eb bd 5d 5a 32 bd 90 73 e7 bd 64 b2 ba 3d
       -0.11477618 -0.04354321 -0.11301339 0.091160566
0001d0 cb ff ed 3b 77 8e 69 3c 87 38 09 bc ea bc 82 bd
       0.007263159 0.014255158 -0.008375294 -0.06383689
0001e0 78 fd b3 bd 52 47 9a bc e5 ae 19 3d 6a 7a 8b bd
       -0.0878858 -0.018832836 0.037520308 -0.06810458
0001f0 86 c4 9d bd b0 b5 a5 3d 31 8a 30 bd 56 9c 8f 3d
       -0.077034995 0.08091295 -0.04310054 0.070122406
000200 5e 76 f4 3d 72 00 f0 3d 8e 50 c5 bd 47 fe 12 3c
       0.11936639 0.11718835 -0.09634505 0.008971757
000210 ea 1d c8 bd 4b 3a 9f 3b 4a f2 8b 3c a5 60 5c bd
       -0.09771331 0.004859244 0.017083306 -0.053803105
000220 91 bc 16 3d 69 47 1f bd 70 9e 8f 3d 5c c0 69 3a
       0.036800925 -0.03888646 0.070126414 0.00089169084
000230 c4 14 b1 3d 7c 6a ac 3d 6a 34 e2 3c f2 b5 bc 3c
       0.08646539 0.08418748 0.027612884 0.023035977
000240 01 81 66 bd 2e 70 a8 bd 88 fb ab 3d 38 53 a8 3d
       -0.05627537 -0.082245216 0.08397585 0.08218998
000250 5a 20 9e 3c ee 2c d6 3d 2c 0e 85 3d 04 9d a6 3d
       0.019302536 0.104577884 0.06496844 0.08135417
000260 e2 f3 c1 bc 1a eb 8f 3c c0 8d e5 bd 6e 4b e9 bd
       -0.023675863 0.01756816 -0.11208677 -0.1139134
000270 e1 36 72 3d 70 b3 99 bd 36 5c c2 3d f0 f3 cd bd
       0.059134368 -0.07504928 0.09490244 -0.10056293
000280 06 4f d3 bd c0 86 d1 bd 56 ae a3 3d 54 12 a9 bd
       -0.10317807 -0.1023078 0.07992236 -0.08255449
000290 da ec da bd 09 0d 57 3d d2 16 cc bc ea 36 f3 bd
       -0.10689707 0.052502666 -0.024913225 -0.118757084
0002a0 5e f2 b4 3d 92 ed b8 3d 9a bb cc 3d ec 15 a0 3d
       0.0883529 0.09029688 0.0999672 0.07816681
0002b0 b0 da c5 bd e1 29 60 bd 09 fb 47 bd 34 59 f8 bd
       -0.09660852 -0.05472744 -0.04882339 -0.12126389
0002c0 40 49 b2 3d c9 f7 4d bd ed 80 2e 3d e0 8f 81 bd
       0.087053776 -0.050285134 0.042603422 -0.0632627
0002d0 8e ca e4 3d ae c4 b3 3d e2 11 b0 3d bd 5e 79 3d
       0.11171447 0.08777748 0.08597161 0.060881365
0002e0 9a ac d5 3d 61 2b 26 3d 3a 87 ac 3c b2 6f e4 bc
       0.10433312 0.040568713 0.021060575 -0.027885292
0002f0 40 69 cf 3d 10 67 f6 bd c8 38 b6 3d 77 dc 3c bc
       0.10127497 -0.12031376 0.08897549 -0.011527172
000300 17 aa 02 bc 30 af a7 bd c1 9f 5e bd f2 b3 be 3c
       -0.007975123 -0.08187711 -0.054351572 0.023279164
000310 d1 67 4f bd bd 0b 35 3d b2 cc 8d 3c ac 4e d9 bd
       -0.050636116 0.044200648 0.01730952 -0.106107086
000320 1a 4d 8b 3d ad 33 60 bd 31 c2 37 bd d5 34 3b bd
       0.06801815 -0.054736782 -0.04486293 -0.04570468
000330 31 12 49 3d 64 d1 fb bd ea e0 b7 bd d5 d1 4c 3d
       0.049089614 -0.122957975 -0.08978446 0.0500048
000340 a9 e7 19 bd 82 d8 bf bc e6 65 e5 bd 57 c7 4a 3c
       -0.037574444 -0.023418669 -0.11201076 0.012376628
000350 bd bb 6f 3d dd 94 37 bd 37 9d 17 3c d6 aa 54 3b
       0.05852865 -0.0448197 0.0092537915 0.003245046
000360 72 60 d6 bc f0 de cd 3d 11 9f 02 3d 32 2d c0 3c
       -0.026169036 0.100522876 0.03188998 0.02345905
000370 d6 27 6b bb 97 06 18 bb a0 da 88 3d eb bd e1 3b
       -0.0035881898 -0.0023197287 0.066823244 0.006889095
000380 da 42 e5 3c f2 24 cf 3d 64 64 b4 3d 8d ab 3a bd
       0.027985979 0.10114469 0.088082105 -0.04557376
000390 e0 02 d1 bd a9 a0 05 3d 7c 3b ae bd de fc fd bd
       -0.102056265 0.03262392 -0.085074395 -0.12401746
0003a0 ce 2d af 3d 18 90 d3 bd f6 10 fc 3d 92 3a eb bd
       0.085536584 -0.10330218 0.123079225 -0.11485781
0003b0 b8 d4 cf bd 84 91 92 3d 57 1c 19 3c 31 ee 5d bd
       -0.10147995 0.07156661 0.009345136 -0.054182235
0003c0 9d 1c 41 3d 5e b7 a5 bd ba 7c 8c bd 26 ed f5 bd
       0.04714643 -0.08091615 -0.06859727 -0.12008123
0003d0 52 84 82 bd b2 44 db bd 90 bf da 3d 8d 59 5d bd
       -0.06372894 -0.10706462 0.10681069 -0.05404048
0003e0 22 48 ab 3c c9 e5 64 bd 0a 24 e8 bc b0 65 ba 3d
       0.020908419 -0.055883203 -0.028337497 0.091014266
0003f0 d2 f1 cd 3c 79 f9 75 3d 95 10 26 3d e0 07 d0 bd
       0.025139723 0.06005237 0.040543158 -0.10157752

encoder._module.bias_ih_l0 f4 [192]
000000 a6 60 ab 3d e2 05 9a bd 80 e3 d9 3d b5 a1 48 bd
       0.083680436 -0.07520653 0.10639095 -0.04898234
000010 9a 5b 92 bc 8b 12 cc bb ca 9d e7 bd b4 5e dc 3d
       -0.017865945 -0.0062277964 -0.11309393 0.10760251
000020 d4 25 f1 bd f1 36 13 3d d1 f9 6a bd 19 8d 5b 3d
       -0.11774793 0.035941068 -0.05736715 0.053601358
000030 7d 4e 11 3d 99 87 0d bd 0a 29 b0 bd ad ad 4b 3d
       0.035475243 -0.034553144 -0.086015776 0.049726177
000040 b5 49 59 3d 08 b9 fb bd 62 f2 e0 bc ad 87 3b bd
       0.053048808 -0.12291151 -0.027459327 -0.045783687
000050 ad 65 f9 ba 49 d0 39 bd 0e c4 f1 bd 85 4c 28 3d
       -0.0019027494 -0.04536465 -0.118049726 0.0410886
000060 d1 57 61 3d 70 55 94 3d 1a 09 d3 3d f6 65 96 3d
       0.05501539 0.072428584 0.1030447 0.07343666
000070 a0 d6 9c bd 18 06 f8 3d c8 ef a7 bd 86 9a e3 3d
       -0.07658124 0.12110537 -0.082000315 0.111134574
000080 c0 fb dd bd 66 af 89 bd fa e3 b6 bd eb 1e e7 3b
       -0.10839033 -0.06722908 -0.08930202 0.0070532463
000090 29 74 41 bd 3a 64 e8 3d aa 89 97 bc f9 e7 79 bd
       -0.04722992 0.11347242 -0.01849826 -0.061012242
0000a0 36 14 bb bd ca d2 e4 bc 54 98 87 bd 22 1f dd bc
       -0.09134714 -0.027932543 -0.06620851 -0.026992384
0000b0 59 43 44 bd e5 90 ea 3d 8e c3 fd 3d b0 7e 8a bd
       -0.04791579 0.11453418 0.12390815 -0.06762445
0000c0 e6 71 d2 3d 07 63 63 bc 01 2d 15 bd c2 41 f8 bd
       0.10275631 -0.01387859 -0.036419872 -0.12121917
0000d0 f4 a7 ae bd 39 5f 68 bd 20 b2 a3 bd b4 9f a7 bd
       -0.08528128 -0.056731436 -0.07992959 -0.08184758
0000e0 da 98 89 bc 90 d6 81 bd 44 f5 a6 bd 4e 73 bc 3d
       -0.016796518 -0.06339753 -0.081522495 0.0920168
0000f0 b4 da be bd 90 73 a0 bd 3d 0e 28 bd 5e 23 b8 3d
       -0.09319058 -0.07834542 -0.041029204 0.08991121
000100 57 dd 71 3b 59 39 36 bd 00 cb b0 bd 8a 77 af 3c
       0.003690561 -0.044488285 -0.08632469 0.021419305
000110 be de d7 3d 92 80 cc bd 59 18 08 bd 10 d4 91 bd
       0.105405316 -0.0998546 -0.033226345 -0.07120526
000120 e7 87 4a bc cb 62 f5 bb 69 94 75 bd 3a dd 90 3d
       -0.012361503 -0.0074885837 -0.059955988 0.070734456
000130 e9 ce 01 3d 98 72 e7 bd ba 07 a7 3d 1d 10 11 bd
       0.031691466 -0.11301154 0.081557706 -0.035415757
000140 17 c3 28 bb d2 42 ad 3c 24 e2 a5 3d 97 83 6c 3c
       -0.0025751048 0.021150026 0.080997735 0.01443567
000150 68 8d d7 3d ab 37 af 3b a9 d4 34 bd 18 84 d5 3d
       0.10525018 0.0053472123 -0.04414812 0.104255855
000160 5e dd c8 3d 42 15 c6 bc 12 22 c2 3d f5 da 01 3d
       0.098078474 -0.024180058 0.09479155 0.031702954
000170 8d fb 50 3d ad d3 7b bd 06 60 f1 bd 75 c5 45 3d
       0.051021148 -0.061481167 -0.11785893 0.048284013
000180 40 62 90 bd 51 e1 1e 3d f0 84 be bd f1 41 16 bd
       -0.0704999 0.038789097 -0.093026996 -0.03668398
000190 70 2f dd bd 98 da 96 bd f7 93 73 bc 24 9c ad bd
       -0.108000636 -0.07365912 -0.014866821 -0.08477047
0001a0 ac b7 c7 3d a2 0b c9 3c 44 59 ab 3d 37 d3 26 3c
       0.097518295 0.02454168 0.083666354 0.0101821935
0001b0 2d b2 1a bd 3c 53 f8 bd d7 0b 44 bc 7d 31 07 bd
       -0.037767578 -0.12125251 -0.011965713 -0.03300618
0001c0 77 79 4f 3c da b1 a8 bd aa 36 c2 3d ab 37 a5 bb
       0.012663237 -0.082370475 0.094830826 -0.0050420365
0001d0 fa ef d3 3d 5d d4 77 3d 06 49 8b bd 97 ff 48 bc
       0.10348506 0.06050526 -0.068010375 -0.012267969
0001e0 57 8b 5f bc 49 0d 78 bd 95 d4 34 3d e7 24 07 3c
       -0.013644061 -0.060559545 0.044148047 0.008248544
0001f0 a8 3d f2 3d 3a 0f 86 3c 7c 33 b8 3d e0 a3 9e 3d
       0.11828166 0.016364682 0.08994195 0.077461004
000200 49 38 3d 3d 4c fa e6 bd 0e 0b 85 3d 16 7f 3d bb
       0.046196256 -0.11278209 0.06496249 -0.002891486
000210 4f 57 e0 39 7e 1e af bd 56 1d ac bd c5 6a 82 3d
       0.0004278966 -0.08550738 -0.08404033 0.06368021
000220 bc 84 1e 3d 0d 84 57 3d 7b 48 e5 bd 51 73 50 bd
       0.038700804 0.052616168 -0.11195465 -0.050891224
000230 4d b8 9b bd c8 a6 a1 bd 8f f3 74 3d fc 86 92 3b
       -0.07603512 -0.07893139 0.059802588 0.004471658
000240 00 52 12 bd b3 a9 5a 3b d9 db 11 bd 0f bc 48 3b
       -0.035722733 0.0033365309 -0.035610054 0.003062967
000250 c5 ce d8 bd 84 47 9b 3c b8 eb b4 3d dc dc d7 3d
       -0.10586313 0.018955 0.08834022 0.105401725
000260 4a 70 a5 3d 87 49 2d bd 9f da d6 bd 7e 94 d4 3d
       0.08078058 -0.04230645 -0.104909174 0.10379885
000270 cf 34 03 3d 7a 79 82 3d 90 15 fe 3d 15 11 2e 3d
       0.032032784 0.06370826 0.124064565 0.04249676
000280 e3 8e d7 bd 35 c5 ad 3d e5 c5 6c bd 0b b2 20 bd
       -0.105253 0.0848488 -0.057805914 -0.039232295
000290 e2 dc ab 3d 9c e5 04 bc 2e 1b fb 3b fb 87 96 3c
       0.083917394 -0.008111384 0.007663152 0.018375387
0002a0 c6 fa 60 3d d3 3c db bc 9f bd d0 3d b9 f6 33 bd
       0.054926656 -0.026762402 0.10192417 -0.043936465
0002b0 74 b0 b7 bc b0 56 19 bc fe b2 85 bd 14 8e 25 bd
       -0.022423007 -0.009359047 -0.06528281 -0.0404187
0002c0 82 b2 09 bd ac 17 56 bd 01 e6 ea 3d fd 52 a8 bb
       -0.033617504 -0.05226867 0.11469651 -0.005136846
0002d0 7b 89 f9 3d e2 68 f4 3d 62 c5 f7 3c 96 46 89 3d
       0.121844254 0.11934067 0.030245487 0.06702916
0002e0 70 fa c4 bd 0b f7 27 39 8c f2 f7 3d 35 c7 86 bc
       -0.0961808 0.00016018392 0.12106809 -0.016452411
0002f0 c5 63 9c bd 6d cf 27 ba 64 51 2f bd 38 73 a2 bd
       -0.07636217 -0.0006401453 -0.04280223 -0.079321325

encoder._module.bias_hh_l0 f4 [192]
000000 6a 08 86 3d 51 c2 11 3d 35 4e 0f 3d 06 ce eb bd
       0.065445736 0.035585705 0.034986693 -0.11513905
000010 d6 cd 17 bc 3c c1 e0 3d 86 37 27 3c 82 95 f1 3d
       -0.009265384 0.109743565 0.010206109 0.117960945
000020 52 f6 f2 bc c7 b0 6e 3c 4a 11 88 3d 56 67 47 3b
       -0.02965847 0.014568514 0.066439226 0.0030426583
000030 6e fc 8f 3d 20 37 e5 3d 10 0e a5 3d 35 92 54 3d
       0.07030569 0.11192155 0.08059323 0.051897246
000040 ec 31 b0 3d 4e bb ce 3d 26 e7 e7 bd 0c de b7 3d
       0.08603272 0.10094319 -0.11323385 0.08977899
000050 48 f8 aa 3d 3a 8c 80 3d 44 09 9e bd d2 02 c4 3d
       0.08348137 0.06276746 -0.07716611 0.095708504
000060 2d a9 05 3d 11 e3 45 3d 1c e6 fd bd 44 76 e6 3d
       0.03263204 0.04831225 -0.123974055 0.11253026
000070 c0 ef ce bd a9 f1 58 3d fe 40 f9 3d 1a 63 8e 3d
       -0.101043224 0.05296484 0.121705994 0.06952496
000080 0a 41 d1 bc 6a 44 aa bc 78 b6 a1 bd d0 69 88 bd
       -0.025543708 -0.020784575 -0.07896131 -0.06660807
000090 75 fc 65 bd 30 15 92 3d 9e 28 9f 3d 62 8b fc bc
       -0.056148965 0.071329474 0.07771419 -0.030828182
0000a0 01 96 29 3d 5a 79 ac 3c 89 49 10 bd e0 19 ad 3d
       0.04140282 0.021053959 -0.03522638 0.08452201
0000b0 d8 cc b1 bd 32 1c cb 3c 0a fd ee 3c 6b f9 91 bb
       -0.08681649 0.024793718 0.029173393 -0.0044547818
0000c0 3a 2e bf 3c 08 73 a4 3d 85 2e 3c 3d 52 45 84 bc
       0.023337472 0.08029753 0.045942802 -0.016146336
0000d0 a1 25 24 3d bd 7a 5d 3d bd 16 44 bd 26 65 b5 bd
       0.04007495 0.05407213 -0.047873247 -0.08857183
0000e0 02 c7 8b 3d 06 ce 36 bc 38 e3 ae 3d 42 25 b9 3c
       0.06825067 -0.011157518 0.08539432 0.022600774
0000f0 e7 da 53 3c 35 55 55 3d 20 11 c6 3d b9 25 26 bd
       0.012930608 0.052083213 0.09671235 -0.04056332
000100 1d 5a 66 3d e2 49 bc bc 31 d1 60 3d fc a5 ea bd
       0.056238282 -0.022984449 0.054887 -0.1145744
000110 1c 43 db 3d de a7 8d 3d b4 2f bb 3d 34 e8 ce 3d
       0.107061595 0.06916784 0.09139958 0.10102883
000120 95 34 21 bd 17 20 4f bc e4 11 93 bd 17 76 0f 3c
       -0.039356787 -0.012641928 -0.07181147 0.008756182
000130 57 4d 5f 3b 32 ca b0 bc 05 62 58 bd 3a 72 b9 3d
       0.0034073198 -0.02158079 -0.052827854 0.0905499
000140 30 25 aa 3d 72 f0 de bd 7c e3 e5 bd aa 0a 87 bd
       0.08307874 -0.10885705 -0.1122503 -0.06593831
000150 97 ab 5d bc 27 56 63 bc 7c 9e ec 3d ad 19 e8 3a
       -0.01352968 -0.013875521 0.11553666 0.0017707847
000160 47 d6 6f bc b6 c7 b0 3d 4d a1 13 bd ea 20 b8 3d
       -0.01463849 0.08631842 -0.0360425 0.08990653
000170 32 48 b8 bc 5d de 34 bd e7 7c 67 3c 94 a6 bb bd
       -0.022495363 -0.044157375 0.0141289 -0.09162632
000180 e2 bb e6 3d 45 31 0b 3d ce e0 e2 3d 6c 80 fd 3d
       0.112663046 0.033982534 0.11078034 0.1237801
000190 b7 b0 13 3c 97 5e 70 bb e7 a6 40 bc 60 13 92 bd
       0.0090143 -0.0036677474 -0.011758543 -0.07132602
0001a0 ad 33 73 3d 66 33 b2 bd 8a b0 d2 3d 11 81 59 3d
       0.059375454 -0.0870121 0.102875784 0.053101603
0001b0 c7 06 11 bc 36 48 98 3d 12 e7 a0 3c 84 48 cb 3d
       -0.0088517135 0.07435648 0.019641433 0.09925941
0001c0 3a 32 94 bd 26 2b c1 bd 91 df 56 bd c2 55 a2 3d
       -0.072361425 -0.09432058 -0.052459303 0.07926513
0001d0 e8 50 94 3d 45 f9 21 bd 6a 44 eb bc f8 5d 8a 3d
       0.07241994 -0.039544363 -0.028719146 0.06756204
0001e0 9e 82 f9 bd 15 fa 60 3d 67 53 6a 3c e1 38 02 3d
       -0.121831164 0.054925997 0.014302111 0.031792525
0001f0 bc e4 f8 bd 6b 59 c2 3b 42 e3 85 3c 84 2c c5 3d
       -0.121530026 0.0059310696 0.016343717 0.09627631
000200 a7 df d1 3d 6a 7a 32 bc 1d 48 e5 3d 96 c6 f0 bd
       0.102477364 -0.010893444 0.11195395 -0.11756627
000210 7a 73 bc bb 3f 60 59 3b 1f 7c c1 bd 06 06 92 3d
       -0.0057510706 0.003316894 -0.09447502 0.07130055
000220 e4 e1 e3 3d c9 ab 56 bd 41 d9 c3 bd f0 e0 40 3c
       0.111270696 -0.05240992 -0.09562922 0.011772379
000230 78 07 de 3d 90 70 4d bd 2c c5 3a bd 04 d0 64 3d
       0.10841268 -0.050156176 -0.045598194 0.05586244
000240 b5 05 e1 3d 79 e7 f2 3d d6 13 e9 3d 35 e3 b6 3d
       0.10987417 0.11860556 0.113807365 0.08930055
000250 9d ac 87 3d e1 90 f9 bd c0 6b e8 3d 04 2c 26 bd
       0.0662472 -0.121858366 0.11348677 -0.04056932
000260 dd 62 d2 bd 06 16 94 bd b3 45 bc bd c6 39 b8 bd
       -0.10272763 -0.07230763 -0.091929816 -0.089953944
000270 f8 74 fb bb ed 13 69 3d 10 b0 c4 bd 78 d7 e3 bd
       -0.007673856 0.05690377 -0.09603894 -0.11125082
000280 a5 6f 84 3d 1a d9 e5 3c 89 f8 2d 3d 10 c1 71 bd
       0.06466607 0.028057624 0.04247335 -0.05902201
000290 49 93 62 3d 76 35 6d bd 60 48 fc 3d 8e a1 0b 3d
       0.055316243 -0.057912312 0.12318492 0.034089617
0002a0 74 63 b7 bd a1 fa 58 3d 62 6c f6 3d 0e 82 95 bd
       -0.08954516 0.052973393 0.12032391 -0.073001966
0002b0 aa 1f dc 3c 04 f8 3d bd 46 75 ba bd 65 a6 47 3d
       0.026870567 -0.046379104 -0.091043994 0.04874267
0002c0 f2 18 ac 3d 75 d3 e4 3d ed 46 6f 3c dd c2 b3 3a
       0.084031954 0.11173145 0.014604312 0.001371469
0002d0 68 99 fe bb a5 bc 92 3d a9 ad 24 bc 75 74 0e 3d
       -0.0077697523 0.07164887 -0.010051169 0.03477903
0002e0 ae c1 89 bc 90 93 56 bd d7 5f a8 3d 49 10 4f 3d
       -0.016815986 -0.05238682 0.08221405 0.05055264
0002f0 71 00 1c 3d 67 39 2b bc 5a d7 da 3c b5 80 0a 3d
       0.03808636 -0.0104506975 0.026714016 0.03381415

fc1.weight f4 [64, 92]
000000 27 f6 40 3b 1c a1 14 bd ff 4e ae bc e8 dc 80 bd
       0.0029443593 -0.03628646 -0.021277903 -0.062921345
000010 69 19 4f bd 78 e4 ca bd 83 11 89 3c 66 04 7a bd
       -0.050561342 -0.09906858 0.016731983 -0.06103935
000020 aa 31 99 bd 1f a8 25 bb 10 48 94 bd f3 dd d0 bd
       -0.07480176 -0.002527721 -0.07240307 -0.101985835
000030 80 3a 3a 3d 8d cc 48 3d ee 8b 88 bc b4 e4 c2 bd
       0.045465946 0.0490232 -0.016668286 -0.09516278
000040 f3 e1 b4 3d 16 81 b9 3d 32 a3 cd 3d 45 c6 7c 3d
       0.08832159 0.09057824 0.10040893 0.061712522
000050 0a 16 b5 3d 73 a7 92 bd 31 0c cf bd 1f 99 9f bd
       0.08842094 -0.07160845 -0.10109747 -0.077928774
000060 82 51 d2 3d 35 88 bd bd 1e 15 e4 bc 6a c1 d2 3d
       0.10269453 -0.09254495 -0.0278421 0.10290797
000070 c4 dc cf 3d 63 49 04 3d ce 2d d3 3d 95 ad 81 3c
       0.101495296 0.03229655 0.10311471 0.01582984
000080 22 2f 8d 3d 2e fc 8c bc 57 19 6b 3d cb 75 4b bd
       0.068937555 -0.017210092 0.057397213 -0.049672883
000090 58 13 c7 3d b0 52 cb bd 55 63 bb bd eb ac 80 3d
       0.097204864 -0.09927881 -0.091498055 0.062829815
0000a0 15 b7 6f 3b 3a 36 c8 3c f3 de 61 bd 39 1e fc bc
       0.0036577631 0.02443992 -0.05514426 -0.03077613
0000b0 1b 3e 89 3d 4b d8 aa 3d d7 cc 03 3d 6d 2c 8e 3c
       0.06701299 0.08342036 0.032177772 0.017355168
0000c0 3c e4 81 bd b7 4d 9f 3d 30 f7 40 3b ea 89 43 3c
       -0.063423604 0.07778495 0.002944421 0.011934737
0000d0 62 53 04 bd 5f b3 9a 3d b4 2c a0 3d 51 c5 9c bd
       -0.032306083 0.075537436 0.078210264 -0.076548226
0000e0 30 40 6b 3c 0a 8d eb 39 f4 06 8b bd c1 eb 67 bd
       0.014358565 0.00044927775 -0.067884356 -0.056621317
0000f0 38 76 46 bd dc d1 60 3d a0 2a 11 bd 0a 67 64 bd
       -0.048452586 0.054887637 -0.03544104 -0.05576233
000100 22 81 de bc 29 cc c7 bd 53 c2 86 bd 30 1e 47 bd
       -0.027161185 -0.09755737 -0.06580033 -0.048612773
000110 03 53 c7 3d 73 14 98 bd d3 d1 59 3d 10 ab 51 bc
       0.0973263 -0.074257754 0.05317862 -0.012797132
000120 70 1a 8c 3d c7 c5 3b bd 77 43 9a 3a 2a 53 09 bd
       0.0684098 -0.045842912 0.0011769374 -0.033526577
000130 39 2f a1 3d 17 3f 9f bd 17 e1 f0 3c 3c 7d d1 3d
       0.07870335 -0.07775705 0.029404206 0.10228965
000140 1f be c4 3d a8 ac 8e bb 48 3b b2 3c 24 63 b1 3d
       0.09606575 -0.0043540783 0.021756783 0.08661488
000150 85 72 b7 3d 2e 20 5c bc c7 24 6d bc 55 d2 6c 3d
       0.0895739 -0.013435407 -0.0144741 0.057817776
000160 db 5f 99 bd cf a2 de bc 07 29 d6 bb a6 f0 ab bd
       -0.07488986 -0.027177243 -0.0065356526 -0.083955094
000170 5b 7c 5c bd 44 27 cb bd 58 a5 22 bd a1 a8 d0 bd
       -0.053829532 -0.09919599 -0.039708465 -0.101884134
000180 65 b8 3b 3d b8 f4 f8 bc 3c 39 bc bc 27 3b 2b 3d
       0.04583015 -0.030390128 -0.02297651 0.04180446
000190 e7 49 a0 bd c8 d8 b8 bc c6 f2 5e bd d6 f8 45 bd
       -0.07826596 -0.022564307 -0.054430746 -0.04833301
0001a0 8a 48 51 3d d7 a7 24 3d 59 d0 63 bd 6e cd 05 bd
       0.05109457 0.040199127 -0.055618618 -0.032666616
0001b0 bc 63 50 bd 64 2d 62 bc 49 05 a2 3b dd 7d 3e 3a
       -0.050876364 -0.013804767 0.0049444777 0.000726668
0001c0 b0 10 94 bc 2b 72 a9 ba ee c4 ba 3c 17 7a 2e bc
       -0.018074363 -0.0012927701 0.022798982 -0.010649226
0001d0 f9 1c 08 bd 78 65 0e 3d a3 f7 93 3d 52 1d f0 3c
       -0.033230755 0.034764737 0.07224967 0.029310856
0001e0 c6 d4 97 bd d4 d6 ea bc 58 6c ac bd e0 c5 a3 3d
       -0.0741363 -0.028666891 -0.084191024 0.07996726
0001f0 59 c1 9a bd 5e fa 64 bd 2c 95 4a 3d 32 bf 92 3d
       -0.075564094 -0.05590283 0.049458668 0.07165374
000200 38 aa 3f 3d 24 3c 3d bd 0f 41 8b 3d 21 84 c7 3c
       0.046793193 -0.046199933 0.06799518 0.024354996
000210 23 ce c9 bd 1a 1e 5e bc 8a a3 c0 bd 29 16 14 bd
       -0.098537706 -0.013556981 -0.094061926 -0.036153946
000220 81 f1 97 3c 4d dc c9 bd fe 25 28 bc 3c 41 77 3d
       0.018547775 -0.09856472 -0.010262964 0.060364947
000230 bb 13 a1 3b 46 c3 b7 3d b5 7b 84 bc 39 8d b7 ba
       0.004915682 0.08972792 -0.01617227 -0.001400388
000240 77 72 af bd 49 e3 eb bc 4f bc 89 3c 68 2a a1 3d
       -0.08566754 -0.028794901 0.016813425 0.078694165
000250 01 7e c3 3d 07 33 64 bc 8c ea b9 3d de 04 3f 3c
       0.09545518 -0.0139281815 0.090779394 0.011658875
000260 ce 1a 90 3d e4 01 7c 3d 06 6e 8b bd 1f e7 cd 3d
       0.070363626 0.06152524 -0.06808095 0.100538485
000270 19 1b c9 3c 30 fb 6b bd 03 48 cc bd 48 1d 5a 3b
       0.024549054 -0.057612598 -0.09974673 0.0033281613
000280 80 d7 16 bd 39 ee b2 3d 55 23 0f 3d 70 22 4e bd
       -0.03682661 0.087368436 0.034945805 -0.05032581
000290 d8 89 c1 3c d9 b0 72 bd bf 8b c4 3d f1 7b 6b 3d
       0.0236253 -0.059250686 0.09596967 0.057491247
0002a0 77 22 52 3d a8 d6 38 3d 50 9b 23 bc 83 0a dd bc
       0.0513024 0.045126587 -0.00998576 -0.026982551
0002b0 75 72 18 3c 9f 99 d4 bd da ef 5d bd f8 d4 40 3c
       0.009304632 -0.103808634 -0.05418382 0.011769526
0002c0 6a bc 9b 3d ae 61 a4 b8 b0 44 11 bd e8 79 90 3d
       0.076042965 -7.838324e-05 -0.035465896 0.07054502
0002d0 d0 ef e1 3c a0 4b 82 bd 15 f1 3a 3d 3f 23 d6 3c
       0.027580172 -0.063620806 0.04564007 0.026139854
0002e0 bb c5 ae bd 43 38 9d 3c 95 f1 8c bd db ef c1 3d
       -0.08533808 0.019191867 -0.068820156 0.09469577
0002f0 55 c5 85 bd 2f 7a 90 bc 80 bc 30 bd 17 ca 18 3c
       -0.06531779 -0.017636387 -0.043148518 0.009325526
000300 12 88 b9 3d c3 c5 49 bd e2 9d 07 3d 8d c6 b4 bc
       0.090591565 -0.049260866 0.033109553 -0.022067333
000310 13 8a 33 bd 95 e9 4e 3b 10 c6 9f 3d 21 4f c0 bd
       -0.04383285 0.0031572331 0.07801449 -0.09390093
000320 38 be 30 bd 51 72 a1 3d fd 0b 4c bd 11 e0 c2 3c
       -0.043150157 0.07883132 -0.04981612 0.023788484
000330 ae 60 1f 3d 33 66 08 3c 9e 1d 04 3c 4f 3d 8e bd
       0.03891056 0.008325147 0.008063702 -0.069452874
000340 a4 7c 83 bc 2e 09 a2 bc eb 32 a3 bb da 8a 37 bc
       -0.016050644 -0.019779768 -0.004980435 -0.011202538
000350 cf 4f c5 bc 13 b7 7c bd 53 83 97 3d be 66 f5 3c
       -0.024085907 -0.06169803 0.07398095 0.029956218
000360 17 35 0d 3d 0f b0 52 3d df de f2 3a ec 18 8a 3d
       0.03447446 0.051437434 0.0018529556 0.06743035
000370 92 92 03 3d fc 9c ff bc 6a 1f 97 3a 13 7b b9 bd
       0.032122202 -0.031202786 0.0011529748 -0.09056678
000380 08 08 5c bd 23 0f c6 3d 0e c2 d2 3d bb 12 98 bd
       -0.053718597 0.09670856 0.10290919 -0.074254476
000390 e3 b6 38 bd 14 b8 69 3d cd 40 be bd f7 84 38 bc
       -0.04509629 0.057060316 -0.092897035 -0.01126217
0003a0 d9 12 c3 bd ba d2 48 bd a1 b6 5e bd 71 27 98 bb
       -0.09525079 -0.04902909 -0.054373387 -0.0046433737
0003b0 fe a0 e0 bc 3d 2a 6a bd 80 ec 5d 3d ba c9 3b bd
       -0.027420517 -0.057169188 0.054180622 -0.04584668
0003c0 26 66 d1 bd 2a b1 4e 3d 13 a9 8b 3d 93 2e b6 bc
       -0.102245614 0.050461926 0.06819358 -0.022239005
0003d0 70 13 34 3b 38 81 55 3c 96 0d 51 bc 69 0d ab bc
       0.0027477406 0.013031296 -0.012759587 -0.020880418
0003e0 c8 3b ad bd 74 b4 39 3d 5a 56 fc b8 76 42 61 3d
       -0.08458668 0.04533811 -0.000120323806 0.054995023
0003f0 1f a2 d7 3b 9a 4c 28 bd be 99 51 bd 3d 50 59 3c
       0.0065806056 -0.041088678 -0.05117201 0.013263759

fc1.bias f4 [64]
000000 74 5b d9 bc 48 0a 3f 39 3d 87 21 3d a9 54 ae 3d
       -0.026532866 0.0001821901 0.039435614 0.085122414
000010 75 c7 af 3b 00 c9 b2 3c 40 40 f8 3c c6 a2 cd 3d
       0.0053643533 0.02182436 0.030304074 0.10040812
000020 7d 63 24 bd a1 6b 19 bb 7a 08 b5 bd 6c 4a af 3d
       -0.040133942 -0.00234101 -0.088395074 0.08559117
000030 ff 4f 1b bc bb 47 45 ba 50 33 01 3d 3b 26 f3 bc
       -0.009479522 -0.0007525642 0.031543076 -0.029681316
000040 59 74 2a bc ea dc 96 bd 21 46 a5 3b 28 4b b1 bd
       -0.010403716 -0.07366355 0.0050437604 -0.08656913
000050 58 20 d4 bd c0 aa 24 bd dc 68 19 bc 71 28 07 3c
       -0.103577316 -0.040201902 -0.009363379 0.008249388
000060 a9 b7 85 bd a7 2b c2 3d 36 b2 c3 3d 67 0c cf bd
       -0.06529171 0.09480982 0.095554754 -0.101097874
000070 20 54 de bc 52 c6 b3 bd b3 80 9c 3d 02 ab a0 bc
       -0.027139723 -0.08778061 0.07641735 -0.019612793
000080 f4 68 54 3d fd 11 9d bd 0b 86 f5 bc e1 15 97 3c
       0.051857904 -0.076694466 -0.029971143 0.01844305
000090 aa df 01 3d 3d ef a8 3b 1e a3 9d 3d 35 e6 22 bd
       0.031707443 0.0051554726 0.07697128 -0.039770324
0000a0 10 b2 9c bd ec 7c 8c 3d d7 b6 60 bd 1b b7 b1 bc
       -0.0765115 0.068597645 -0.05486187 -0.021693757
0000b0 1b 39 5d 3d 9d 4a 94 3c e5 be 3c 3d 95 0d c8 bd
       0.05400954 0.018101985 0.04608049 -0.097682156
0000c0 45 de 90 bd 4c 7a 9e 3d 8f 65 a2 3d 0e b2 65 3c
       -0.070736445 0.0773817 0.07929527 0.014019502
0000d0 57 e2 be 3d 82 97 9f bc e9 dd ad 3d 49 34 8f bd
       0.09320515 -0.019481424 0.08489592 -0.069923945
0000e0 25 e0 ab bd 64 0a 02 3d 40 99 6b bd 66 73 ae 3c
       -0.083923616 0.03174819 -0.057519197 0.02129526
0000f0 8a 46 2e 3d 30 84 bf 3d 66 c7 9d bd 2b de 7b bd
       0.04254774 0.09351385 -0.07704048 -0.061491173

fc2.weight f4 [16, 64]
000000 4c 26 9a 3d 42 0a 47 3c af 95 a6 3c fd b3 cb bc
       0.07526836 0.012148442 0.020335047 -0.024866099
000010 0d e7 ed 3d 0d eb 9a bc 6d 4d 60 bd e2 e8 da 3d
       0.11616335 -0.01891091 -0.05476134 0.1068895
000020 12 52 bc bc 0a da 84 3d 7c 3a 66 bd 85 b8 a4 3b
       -0.022988353 0.064869 -0.05620812 0.0050268793
000030 3b c3 83 bc 21 12 7e 3d 90 2a 92 bd 4a 1b d2 bd
       -0.016084304 0.062029008 -0.071370244 -0.10259111
000040 5e 5c ff bd a2 16 b1 bd e2 0c 15 bc 67 c3 73 3c
       -0.124687895 -0.08646895 -0.00909731 0.0148781305
000050 25 00 e8 3d ed 12 7b 3d b0 89 7e bd e8 64 b7 bc
       0.113281526 0.061297346 -0.062143028 -0.022386983
000060 b6 ac 17 3d d8 b0 e1 3d d0 bf bc bd 28 d7 ff bb
       0.037029944 0.110200584 -0.09216273 -0.007807631
000070 54 8d f8 bd d1 2d 8c bd 9c 59 2b 3d 8b b5 1b 3b
       -0.12136331 -0.06844676 0.041833505 0.002375933
000080 72 a6 c7 bd 63 9e cd bd 76 e9 95 3d 4b 13 98 3d
       -0.09748544 -0.100399755 0.0731992 0.07425555
000090 50 0f 9b bd db 7b b2 bd f9 70 c7 bd 1f 11 b6 3d
       -0.0757128 -0.0871503 -0.09738345 0.08889984
0000a0 53 41 c5 bc 46 aa bd 3d 72 75 ce 3d 06 9f 9b bd
       -0.024079 0.09260993 0.10080995 -0.07598691
0000b0 47 98 c4 bd a3 5e ba bd 09 4e c3 3d a6 8e bb bd
       -0.09599357 -0.09100082 0.095363684 -0.091580674
0000c0 58 5e b5 bd 8a a2 b5 3d 4a e4 aa bd 59 a3 a0 bd
       -0.08855885 0.088688925 -0.08344324 -0.07843656
0000d0 c9 a8 98 bd cd 85 a1 bd 2b 87 fe 3d 26 6c a9 3d
       -0.07454068 -0.078868486 0.12428125 0.08272581
0000e0 3c 42 d1 3d c9 c0 ab 3d 1c 87 21 3d fa 44 a9 bc
       0.10217711 0.0838638 0.03943549 -0.020662773
0000f0 92 f2 fa 3a c5 20 bf 3c aa 8b 8f 3d 9c c0 90 3d
       0.0019145778 0.023331055 0.07009061 0.07067987
000100 37 19 c0 3d 59 c4 27 bd a0 e8 cd 3d 6e 53 33 bd
       0.09379809 -0.040958736 0.10054135 -0.043780737
000110 95 2c 0c 3d a5 81 08 3d c9 a9 9f 3d dc 59 83 3c
       0.034222204 0.033326764 0.07796056 0.01603406
000120 aa c2 a8 ba 52 89 a6 bc cb f5 47 bd 33 77 ad 3d
       -0.0012875397 -0.020329151 -0.04881839 0.08470001
000130 a7 7b b2 3d 25 03 53 3d 59 b1 4e bd 5a 32 d4 3c
       0.08714991 0.05151667 -0.0504621 0.025902916
000140 fd 4f 1d bd 65 33 52 3d b8 d4 8a 3d 13 08 ec 3d
       -0.03840636 0.051318545 0.06778854 0.115249775
000150 23 dd b9 3d e4 54 db bd 3d c4 99 bd ee 1e 3a 3d
       0.090753816 -0.10709551 -0.075081326 0.045439653
000160 5b 41 d3 3d df 66 c2 bd 4c 32 88 bd 49 54 52 3d
       0.103152 -0.09492277 -0.06650218 0.05134991
000170 2d cf 61 bd 40 7b be 3d c1 54 5e bd 74 d7 a7 3d
       -0.05512922 0.09300852 -0.054280046 0.08195391
000180 99 9f 34 3d b5 9f 00 bd 04 e6 b2 bd 88 34 a0 3d
       0.044097517 -0.03140231 -0.08735278 0.078225195
000190 99 97 e1 bd a5 ab 83 bd 5c d6 e0 bd e7 6a ef 3d
       -0.11015243 -0.06429223 -0.10978386 0.11690312
0001a0 a6 b9 3e 3c 9a e2 a3 bc 97 32 18 3d a4 f3 ea 3d
       0.011640942 -0.020005513 0.03715762 0.11472252
0001b0 2a 42 82 3d 69 8f d1 3d 0c e6 98 bd 50 aa 88 bd
       0.06360276 0.102324314 -0.07465753 -0.066731095
0001c0 eb eb b6 3d 2d b9 7d 3d 54 45 17 bc d1 94 c6 3d
       0.089317165 0.061944176 -0.009232838 0.09696353
0001d0 a5 23 d4 bd 9c b3 97 3d 72 71 b4 bd 85 ed a4 bd
       -0.10358361 0.07407305 -0.088107005 -0.08053116
0001e0 22 ab 9e 3c 4d 58 be 3d 6c fc a6 3d b6 30 4e 3c
       0.019368712 0.09294186 0.081536144 0.012584856
0001f0 01 da 72 3d 85 b7 7b bd 1d 0b de 3d 8f 23 9a 3d
       0.059289936 -0.061454315 0.108419634 0.075263135
000200 95 f5 23 3d 8a a8 fa 3d 89 da 04 bd 2d f7 82 bd
       0.040029127 0.122391775 -0.032434974 -0.06394801
000210 38 30 a9 bd 45 aa 50 3d 1a ec c5 bd 91 ca 13 3a
       -0.0826115 0.05094363 -0.096641734 0.000563779
000220 7f 8a e6 3d 35 83 7a bd d6 b3 d9 bc 45 52 04 3d
       0.11256885 -0.061160285 -0.02657501 0.03230502
000230 85 df a4 bd 64 87 aa bc 6d ae 5b 3d d7 75 89 3d
       -0.080504455 -0.020816512 0.053633142 0.06711929
000240 96 48 f3 bd c4 01 fa bd c9 c6 65 3d 89 3e 31 3d
       -0.11879079 -0.12207368 0.05609778 0.04327253
000250 7d 09 d5 bc 30 e5 b8 bd 92 d1 ca 3d 1a 9a d9 3d
       -0.0260055 -0.09028089 0.099032536 0.10625096
000260 55 52 61 bd e1 dc a5 3d 02 2f bd 3d 3c 41 b8 3c
       -0.05501016 0.0809877 0.09237482 0.022492044
000270 c4 4d 23 bc 79 ce 6b bd 66 b2 fa 3d 99 c2 a8 3d
       -0.009967271 -0.057569955 0.12241058 0.082402416
000280 00 e9 94 3d c4 d5 e1 3d f4 b8 b6 bc d5 98 27 3b
       0.07271004 0.11027101 -0.02230499 0.0025573273
000290 46 12 d3 3d aa 57 cc 3d c9 79 22 3d 66 c2 42 3c
       0.1030622 0.09977658 0.039666925 0.0118871685
0002a0 05 d3 68 bc 1a 81 39 3b 34 de 97 3d 94 37 b6 3d
       -0.014210467 0.002830571 0.07415429 0.088973194
0002b0 82 09 98 bc 15 8d a9 bd 84 37 0e 3c 76 10 7e bc
       -0.018559221 -0.082788624 0.008680228 -0.015506854
0002c0 00 59 ff 3d bb 17 dc bd e6 7f 51 3d cb e4 92 3d
       0.12468147 -0.10746714 0.051147364 0.07172545
0002d0 cc c0 89 3d 95 eb bf 3c f2 92 db bc 3e bd d8 bd
       0.06726226 0.023427764 -0.026803467 -0.1058297
0002e0 79 5c 60 3d 1e a3 e0 bd eb 70 ef bd 4a 01 af bd
       0.05477569 -0.10968612 -0.11691459 -0.08545168
0002f0 89 ca 6b 3d 28 6c e6 3d 97 2e 4a 3c f5 2d 6c bd
       0.0575662 0.11251098 0.012340209 -0.057661016
000300 97 f7 ce bd 3d 0e 2b bd 79 57 e2 bd a2 a4 d1 bc
       -0.10105818 -0.041761626 -0.1105184 -0.025591198
000310 75 74 41 bd 46 1b a1 bd a6 e3 f8 bd 9a 79 98 bc
       -0.047230203 -0.0786653 -0.121527955 -0.018612672
000320 03 6d 9c bd 6b 2b 9e 3c 01 85 89 3c 05 d9 7c bd
       -0.0763798 0.019307813 0.016787054 -0.061730403
000330 6c c2 9b 3b 5d df 22 bd 92 09 f8 bc 53 22 da 3d
       0.0047534015 -0.039763797 -0.030278001 0.10651078
000340 c3 c9 ef 3d 45 35 c0 bd b1 23 a8 bd f9 8c 25 3d
       0.11708405 -0.0938516 -0.082099326 0.040417645
000350 a5 a5 4b bd 8d 59 7e 3d 2a 58 56 3d 2c 8e 8f 3d
       -0.049718518 0.06209712 0.052330174 0.07009539
000360 43 f9 bf bc 12 44 f0 bc 29 fe 58 3d a8 07 f1 bd
       -0.023434287 -0.029329333 0.05297676 -0.117690384
000370 c1 28 ab 3d 37 39 c6 bd 2a 3e e3 bc 1d 3e 3c bd
       0.083573826 -0.096788816 -0.027739603 -0.045957673
000380 37 c0 0e bc 56 9e f0 3d 43 0a f9 bd 72 71 fb bd
       -0.00871282 0.1174895 -0.121601604 -0.12277497
000390 f1 4f 60 3d 36 5f 6f 3c df e1 df bd ed c6 9a bd
       0.054763738 0.014610102 -0.10931753 -0.07557473
0003a0 04 97 b4 3d fa aa c2 3c f6 06 b6 bd d4 da c5 3d
       0.088178664 0.023763169 -0.088880464 0.09660879
0003b0 f9 f7 79 3d d1 8a 37 3d 75 ae 1a bd 42 d5 d0 3c
       0.0610275 0.04481012 -0.03776403 0.025492314
0003c0 23 53 e3 3c b5 90 13 bc aa 3c fd bd e1 73 4c 3d
       0.027749604 -0.009006669 -0.123650864 0.0499152
0003d0 82 40 98 bc b2 cd c3 3d 0d 12 28 bd 74 1f 9e 3c
       -0.018585447 0.09560718 -0.04103284 0.019302107
0003e0 6a 54 8f bd 6b 34 88 bd 46 a6 e7 3d 7b 2d f8 bd
       -0.069985226 -0.06650623 0.11311011 -0.1211805
0003f0 84 e8 aa 3d d1 e9 68 bd 0c 2a ee bd 24 d0 87 bd
       0.0834513 -0.05686361 -0.116291136 -0.066314965

fc2.bias f4 [16]
000000 ea ef a7 3c cd 0b b2 3c 45 9c ee bd 74 0c b7 3d
       0.020500142 0.021734143 -0.116509 0.08937922
000010 ee f3 67 bd 9c 8a 7a 3c 26 57 28 bd 87 5d c9 bd
       -0.056629114 0.015291836 -0.041098736 -0.09832292
000020 9b 66 fc bd 43 18 98 3d 93 b2 e4 3d 71 c0 d1 bd
       -0.12324258 0.074265026 0.11166873 -0.102417834
000030 34 3a e4 bc d4 63 d2 bc 7e f6 ea bd b9 da ed bd
       -0.027859785 -0.025682367 -0.11472796 -0.11613984

exp_avg f4 [192, 64]
000000 0c a0 e5 37 d7 d4 e5 37 c0 09 e4 b7 22 ae e5 37
       2.7373455e-05 2.7398039e-05 -2.7184258e-05 2.7380014e-05
000010 b8 d4 e3 b7 ab f4 e3 37 80 e5 e3 b7 70 b6 e5 37
       -2.7159564e-05 2.7174441e-05 -2.7167378e-05 2.7383881e-05
000020 9d f2 e5 37 98 7c e5 b7 4e d8 e5 37 24 24 e4 37
       2.7411903e-05 -2.7356946e-05 2.7399652e-05 2.7196547e-05
000030 5b fa e5 37 f6 c8 e3 37 18 ec e4 37 a8 c0 e3 b7
       2.7415508e-05 2.7154088e-05 2.7289658e-05 -2.7150221e-05
000040 a3 a6 e5 37 f5 ca e3 37 ed d7 e4 b7 8c 03 e4 37
       2.7376524e-05 2.7155018e-05 -2.7280266e-05 2.718137e-05
000050 17 82 e4 b7 32 8e e3 b7 c4 1b e4 b7 7d 3e e5 37
       -2.7240296e-05 -2.7126724e-05 -2.7192647e-05 2.7328026e-05
000060 43 3c e5 b7 04 73 e4 b7 58 2d e4 b7 9e 16 e5 b7
       -2.7326989e-05 -2.7233276e-05 -2.7200833e-05 -2.730946e-05
000070 5f af e3 37 be fa e5 b7 fb 88 e6 37 fb 87 e5 b7
       2.7142172e-05 -2.7415688e-05 2.7481923e-05 -2.7362248e-05
000080 01 6f e6 37 4d c5 e3 37 80 3e e4 b7 c7 09 e5 37
       2.7469827e-05 2.7152384e-05 -2.7208822e-05 2.730348e-05
000090 13 a5 e3 37 9d 84 e5 37 09 f3 e3 37 53 44 e4 b7
       2.7137377e-05 2.736068e-05 2.717368e-05 -2.7211534e-05
0000a0 5b ea e3 37 1b 4b e4 b7 dd 5d e4 37 ec dd e5 37
       2.7169639e-05 -2.7214692e-05 2.7223427e-05 2.7402268e-05
0000b0 ee 39 e5 37 6f 6e e4 b7 f2 7d e5 37 63 ce e3 37
       2.7325903e-05 -2.7231143e-05 2.7357575e-05 2.7156615e-05
0000c0 3b ca e4 37 34 c0 e4 b7 f1 e5 e5 b7 c3 4d e4 b7
       2.7273889e-05 -2.726922e-05 -2.7406002e-05 -2.7215929e-05
0000d0 e0 75 e5 b7 88 98 e5 37 f3 e9 e4 37 f6 80 e4 37
       -2.7353817e-05 2.7369955e-05 2.728866e-05 2.723977e-05
0000e0 7d 1d e4 37 b3 8e e3 b7 18 92 e5 37 63 3c e5 b7
       2.719345e-05 -2.7126958e-05 2.7366958e-05 -2.7327047e-05
0000f0 10 e0 e3 37 c3 35 e5 b7 fd 24 e4 37 10 58 e4 b7
       2.7164846e-05 -2.7323962e-05 2.7196942e-05 -2.7220725e-05
000100 14 35 e4 37 28 eb e3 b7 16 a8 e5 37 32 0d e5 b7
       2.7204434e-05 -2.7170012e-05 2.7377198e-05 -2.7305072e-05
000110 ba 06 e5 b7 b4 0b e5 b7 e9 e4 e5 37 83 56 e4 37
       -2.730206e-05 -2.7304377e-05 2.7405522e-05 2.7220003e-05
000120 a4 0d e6 37 49 b4 e5 b7 eb 25 e6 b7 83 91 e5 b7
       2.7424489e-05 -2.738288e-05 -2.7435794e-05 -2.7366686e-05
000130 e6 30 e5 b7 e4 7b e4 37 01 5e e4 37 7b af e5 37
       -2.7321697e-05 2.7237409e-05 2.7223492e-05 2.7380642e-05
000140 72 d3 e4 b7 82 44 e5 b7 e8 c6 e4 37 e9 78 e4 b7
       -2.727818e-05 -2.7330829e-05 2.7272341e-05 -2.7236021e-05
000150 ed 0e e5 37 0b 02 e4 b7 86 f7 e4 37 84 89 e5 b7
       2.7305878e-05 -2.718067e-05 2.729498e-05 -2.7362963e-05
000160 06 bc e4 b7 aa 31 e4 37 3b e7 e3 37 62 0e e4 b7
       -2.7267273e-05 2.7202845e-05 2.7168184e-05 -2.7186416e-05
000170 7f 04 e5 37 14 42 e5 37 2d 56 e5 b7 85 d7 e4 b7
       2.7301021e-05 2.7329697e-05 -2.7339056e-05 -2.7280077e-05
000180 b1 f4 e5 37 bb 4b e4 b7 1e 57 e4 b7 ef 14 e6 b7
       2.741287e-05 -2.7214983e-05 -2.7220285e-05 -2.7427885e-05
000190 45 f8 e4 b7 17 07 e4 37 38 b9 e3 b7 6e 63 e5 b7
       -2.7295328e-05 2.718302e-05 -2.7146758e-05 -2.7345228e-05
0001a0 52 64 e3 37 1b 48 e5 b7 39 c4 e5 b7 d4 e3 e4 b7
       2.7107224e-05 -2.7332504e-05 -2.73903e-05 -2.7285809e-05
0001b0 39 d2 e5 b7 07 1e e5 b7 3d 30 e6 37 eb da e3 37
       -2.739682e-05 -2.731291e-05 2.74406e-05 2.716245e-05
0001c0 d4 34 e4 37 87 f4 e5 b7 d9 2d e5 b7 e1 58 e4 b7
       2.7204318e-05 -2.7412794e-05 -2.7320277e-05 -2.7221105e-05
0001d0 24 c3 e3 37 6b da e5 b7 d8 7d e4 b7 d5 07 e5 b7
       2.7151378e-05 -2.7400636e-05 -2.7238319e-05 -2.7302574e-05
0001e0 9c 52 e3 37 0b 77 e4 b7 71 86 e3 b7 8a 47 e5 b7
       2.7098977e-05 -2.7235152e-05 -2.7123113e-05 -2.733224e-05
0001f0 29 49 e5 b7 bb 03 e5 b7 74 4f e4 b7 ab 93 e5 b7
       -2.7332995e-05 -2.7300664e-05 -2.7216716e-05 -2.736769e-05
000200 65 b7 e5 37 95 e4 e3 b7 38 b0 e5 37 78 09 e4 37
       2.7384327e-05 -2.716695e-05 2.7380986e-05 2.7184127e-05
000210 70 ca e5 b7 92 3b e5 37 ed 19 e4 b7 99 76 e4 b7
       -2.7393195e-05 2.7326667e-05 -2.719179e-05 -2.7234944e-05
000220 80 b3 e5 b7 e5 31 e6 b7 68 24 e4 37 ed 19 e4 b7
       -2.7382514e-05 -2.744137e-05 2.7196671e-05 -2.719179e-05
000230 50 6c e4 37 8d c1 e5 b7 8b 62 e5 37 a9 6a e5 b7
       2.7230155e-05 -2.7389056e-05 2.7344815e-05 -2.7348595e-05
000240 c7 dd e3 b7 6f ec e3 37 7b b8 e4 37 db 97 e5 37
       -2.7163782e-05 2.7170607e-05 2.7265623e-05 2.736964e-05
000250 05 e5 e5 37 5d 98 e5 b7 05 0c e4 37 17 92 e4 b7
       2.7405573e-05 -2.7369877e-05 2.7185315e-05 -2.7247746e-05
000260 19 a3 e3 b7 fb 7d e5 b7 50 cb e5 37 e2 6b e5 b7
       -2.7136457e-05 -2.7357592e-05 2.7393602e-05 -2.7349164e-05
000270 b3 d4 e4 37 3f 54 e4 37 d9 3f e4 37 4e d9 e4 b7
       2.7278764e-05 2.7218948e-05 2.720945e-05 -2.7280908e-05
000280 d1 eb e5 37 b0 f1 e3 37 57 b2 e3 37 eb e3 e5 b7
       2.7408738e-05 2.7173053e-05 2.7143555e-05 -2.740506e-05
000290 94 76 e4 37 3d c8 e3 b7 18 a6 e4 b7 e6 bf e5 37
       2.7234935e-05 -2.7153752e-05 -2.7257061e-05 2.7388287e-05
0002a0 29 eb e3 37 7d 06 e5 b7 73 d3 e4 b7 63 7a e3 b7
       2.7170014e-05 -2.7301949e-05 -2.7278182e-05 -2.71175e-05
0002b0 a9 eb e4 37 3d 18 e4 b7 b4 e9 e4 b7 bc 4f e4 b7
       2.7289456e-05 -2.7191005e-05 -2.7288545e-05 -2.7216847e-05
0002c0 35 73 e5 b7 0b 44 e4 37 32 77 e5 37 ce 1a e6 b7
       -2.7352575e-05 2.7211403e-05 2.7354432e-05 -2.7430619e-05
0002d0 d0 ee e3 37 9e bf e4 37 de cf e3 37 41 57 e4 b7
       2.7171714e-05 2.7268947e-05 2.7157304e-05 -2.7220349e-05
0002e0 65 cb e4 37 c5 b8 e4 37 3e 63 e4 37 f4 d9 e3 b7
       2.7274431e-05 2.7265758e-05 2.7225931e-05 -2.7162001e-05
0002f0 1b 1e e4 b7 68 97 e3 37 6a d8 e3 b7 20 2f e4 b7
       -2.7193737e-05 2.7131013e-05 -2.7161284e-05 -2.7201662e-05
000300 3a 05 e5 37 da c7 e5 37 5a 77 e3 b7 dd d8 e3 b7
       2.7301361e-05 2.739199e-05 -2.7116086e-05 -2.7161494e-05
000310 0f 92 e3 37 75 63 e3 b7 24 97 e3 37 31 74 e4 37
       2.7128523e-05 -2.7106822e-05 2.7130889e-05 2.7233824e-05
000320 5b e8 e5 b7 2f 8e e4 b7 f9 a2 e5 37 81 93 e4 37
       -2.7407126e-05 -2.7245927e-05 2.7374817e-05 2.7248405e-05
000330 38 53 e3 b7 16 d0 e4 b7 72 db e4 b7 70 e5 e5 b7
       -2.709926e-05 -2.7276616e-05 -2.7281905e-05 -2.7405767e-05
000340 e4 2a e4 b7 cf 44 e4 37 e8 bc e4 37 a9 a6 e4 37
       -2.719969e-05 2.721176e-05 2.7267684e-05 2.7257325e-05
000350 c0 c7 e5 b7 ca 3c e5 b7 e5 b1 e3 b7 f9 19 e6 37
       -2.7391943e-05 -2.7327234e-05 -2.7143347e-05 2.7430231e-05
000360 73 c2 e3 37 86 48 e4 b7 e4 b7 e4 37 91 68 e4 b7
       2.7151056e-05 -2.721349e-05 2.7265349e-05 -2.722841e-05
000370 f6 6a e5 b7 14 58 e5 37 50 8c e4 b7 8a 1f e4 b7
       -2.7348735e-05 2.7339942e-05 -2.7245056e-05 -2.7194405e-05
000380 c4 62 e6 b7 e5 30 e5 37 1c 61 e5 37 84 80 e4 37
       -2.7464128e-05 2.7321696e-05 2.7344147e-05 2.7239563e-05
000390 4b 7f e5 b7 26 22 e6 b7 6f eb e5 b7 5f 84 e5 37
       -2.7358203e-05 -2.7434038e-05 -2.740856e-05 2.7360567e-05
0003a0 d8 cc e4 37 dd fd e5 37 55 cf e4 37 4f 32 e4 37
       2.7275106e-05 2.7417142e-05 2.7276265e-05 2.7203145e-05
0003b0 38 80 e3 b7 5d a1 e5 b7 54 36 e6 b7 0b 0a e6 b7
       -2.7120215e-05 -2.7374068e-05 -2.7443435e-05 -2.7422813e-05
0003c0 52 75 e4 37 c4 92 e4 b7 25 b4 e3 b7 60 f2 e4 b7
       2.723435e-05 -2.7248061e-05 -2.7144395e-05 -2.7292583e-05
0003d0 d7 f5 e3 b7 16 72 e5 b7 03 1e e5 b7 dd 44 e4 37
       -2.7174987e-05 -2.7352053e-05 -2.7312903e-05 2.7211785e-05
0003e0 a7 40 e4 b7 38 e5 e4 37 ec 3a e4 b7 b2 5f e5 b7
       -2.7209824e-05 2.7286456e-05 -2.7207156e-05 -2.7343489e-05
0003f0 40 f7 e3 b7 a8 a1 e4 b7 ef 38 e4 b7 79 0c e6 b7
       -2.7175643e-05 -2.7254995e-05 -2.720623e-05 -2.7423945e-05
